{"format": "graph-model", "generatedBy": "2.3.1", "convertedBy": "TensorFlow.js Converter v2.7.0", "userDefinedMetadata": {"signature": {"inputs": {"conv_lst_m2d_input:0": {"name": "conv_lst_m2d_input:0", "dtype": "DT_FLOAT", "tensorShape": {"dim": [{"size": "-1"}, {"size": "16"}, {"size": "1"}, {"size": "64"}, {"size": "128"}]}}}, "outputs": {"Identity:0": {"name": "Identity:0", "dtype": "DT_FLOAT", "tensorShape": {"dim": [{"size": "-1"}, {"size": "1"}]}}}}}, "modelTopology": {"node": [{"name": "StatefulPartitionedCall/sequential/conv_lst_m2d_1/TensorArrayV2Stack/TensorListStack/element_shape", "op": "Const", "attr": {"value": {"tensor": {"dtype": "DT_INT32", "tensorShape": {"dim": [{"size": "4"}]}}}, "dtype": {"type": "DT_INT32"}}}, {"name": "StatefulPartitionedCall/sequential/conv_lst_m2d_1/transpose_1/perm", "op": "Const", "attr": {"value": {"tensor": {"dtype": "DT_INT32", "tensorShape": {"dim": [{"size": "5"}]}}}, "dtype": {"type": "DT_INT32"}}}, {"name": "StatefulPartitionedCall/sequential/batch_normalization_1/batchnorm/mul", "op": "Const", "attr": {"value": {"tensor": {"dtype": "DT_FLOAT", "tensorShape": {"dim": [{"size": "40"}]}}}, "dtype": {"type": "DT_FLOAT"}}}, {"name": "StatefulPartitionedCall/sequential/batch_normalization_1/batchnorm/sub", "op": "Const", "attr": {"value": {"tensor": {"dtype": "DT_FLOAT", "tensorShape": {"dim": [{"size": "40"}]}}}, "dtype": {"type": "DT_FLOAT"}}}, {"name": "StatefulPartitionedCall/sequential/max_pooling3d_1/transpose/perm", "op": "Const", "attr": {"value": {"tensor": {"dtype": "DT_INT32", "tensorShape": {"dim": [{"size": "5"}]}}}, "dtype": {"type": "DT_INT32"}}}, {"name": "StatefulPartitionedCall/sequential/max_pooling3d_1/transpose_1/perm", "op": "Const", "attr": {"dtype": {"type": "DT_INT32"}, "value": {"tensor": {"dtype": "DT_INT32", "tensorShape": {"dim": [{"size": "5"}]}}}}}, {"name": "StatefulPartitionedCall/sequential/flatten/Const", "op": "Const", "attr": {"dtype": {"type": "DT_INT32"}, "value": {"tensor": {"dtype": "DT_INT32", "tensorShape": {"dim": [{"size": "2"}]}}}}}, {"name": "unknown_13", "op": "Const", "attr": {"dtype": {"type": "DT_FLOAT"}, "value": {"tensor": {"dtype": "DT_FLOAT", "tensorShape": {"dim": [{"size": "5120"}, {"size": "128"}]}}}}}, {"name": "unknown_14", "op": "Const", "attr": {"dtype": {"type": "DT_FLOAT"}, "value": {"tensor": {"dtype": "DT_FLOAT", "tensorShape": {"dim": [{"size": "128"}]}}}}}, {"name": "unknown_15", "op": "Const", "attr": {"dtype": {"type": "DT_FLOAT"}, "value": {"tensor": {"dtype": "DT_FLOAT", "tensorShape": {"dim": [{"size": "128"}, {"size": "128"}]}}}}}, {"name": "unknown_16", "op": "Const", "attr": {"dtype": {"type": "DT_FLOAT"}, "value": {"tensor": {"dtype": "DT_FLOAT", "tensorShape": {"dim": [{"size": "128"}]}}}}}, {"name": "unknown_17", "op": "Const", "attr": {"dtype": {"type": "DT_FLOAT"}, "value": {"tensor": {"dtype": "DT_FLOAT", "tensorShape": {"dim": [{"size": "128"}, {"size": "128"}]}}}}}, {"name": "unknown_18", "op": "Const", "attr": {"dtype": {"type": "DT_FLOAT"}, "value": {"tensor": {"dtype": "DT_FLOAT", "tensorShape": {"dim": [{"size": "128"}]}}}}}, {"name": "unknown_19", "op": "Const", "attr": {"dtype": {"type": "DT_FLOAT"}, "value": {"tensor": {"dtype": "DT_FLOAT", "tensorShape": {"dim": [{"size": "128"}, {"size": "1"}]}}}}}, {"name": "unknown_20", "op": "Const", "attr": {"dtype": {"type": "DT_FLOAT"}, "value": {"tensor": {"dtype": "DT_FLOAT", "tensorShape": {"dim": [{"size": "1"}]}}}}}, {"name": "StatefulPartitionedCall/sequential/conv_lst_m2d_1/time", "op": "Const", "attr": {"dtype": {"type": "DT_INT32"}, "value": {"tensor": {"dtype": "DT_INT32", "tensorShape": {}}}}}, {"name": "StatefulPartitionedCall/sequential/conv_lst_m2d_1/while/loop_counter", "op": "Const", "attr": {"dtype": {"type": "DT_INT32"}, "value": {"tensor": {"dtype": "DT_INT32", "tensorShape": {}}}}}, {"name": "StatefulPartitionedCall/sequential/conv_lst_m2d_1/while/maximum_iterations", "op": "Const", "attr": {"dtype": {"type": "DT_INT32"}, "value": {"tensor": {"dtype": "DT_INT32", "tensorShape": {}}}}}, {"name": "Func/StatefulPartitionedCall/input/_8", "op": "Const", "attr": {"dtype": {"type": "DT_FLOAT"}, "value": {"tensor": {"dtype": "DT_FLOAT", "tensorShape": {"dim": [{"size": "3"}, {"size": "3"}, {"size": "20"}, {"size": "160"}]}}}}}, {"name": "Func/StatefulPartitionedCall/input/_9", "op": "Const", "attr": {"dtype": {"type": "DT_FLOAT"}, "value": {"tensor": {"dtype": "DT_FLOAT", "tensorShape": {"dim": [{"size": "3"}, {"size": "3"}, {"size": "40"}, {"size": "160"}]}}}}}, {"name": "Func/StatefulPartitionedCall/input/_10", "op": "Const", "attr": {"dtype": {"type": "DT_FLOAT"}, "value": {"tensor": {"dtype": "DT_FLOAT", "tensorShape": {"dim": [{"size": "160"}]}}}}}, {"name": "StatefulPartitionedCall/sequential/conv_lst_m2d_1/TensorArrayUnstack/TensorListFromTensor/element_shape", "op": "Const", "attr": {"dtype": {"type": "DT_INT32"}, "value": {"tensor": {"dtype": "DT_INT32", "tensorShape": {"dim": [{"size": "4"}]}}}}}, {"name": "StatefulPartitionedCall/sequential/conv_lst_m2d_1/TensorArrayV2_1/element_shape", "op": "Const", "attr": {"dtype": {"type": "DT_INT32"}, "value": {"tensor": {"dtype": "DT_INT32", "tensorShape": {"dim": [{"size": "4"}]}}}}}, {"name": "StatefulPartitionedCall/sequential/conv_lst_m2d_1/transpose/perm", "op": "Const", "attr": {"dtype": {"type": "DT_INT32"}, "value": {"tensor": {"dtype": "DT_INT32", "tensorShape": {"dim": [{"size": "5"}]}}}}}, {"name": "StatefulPartitionedCall/sequential/conv_lst_m2d_1/strided_slice/stack", "op": "Const", "attr": {"dtype": {"type": "DT_INT32"}, "value": {"tensor": {"dtype": "DT_INT32", "tensorShape": {"dim": [{"size": "1"}]}}}}}, {"name": "StatefulPartitionedCall/sequential/conv_lst_m2d_1/strided_slice/stack_1", "op": "Const", "attr": {"dtype": {"type": "DT_INT32"}, "value": {"tensor": {"dtype": "DT_INT32", "tensorShape": {"dim": [{"size": "1"}]}}}}}, {"name": "StatefulPartitionedCall/sequential/conv_lst_m2d_1/strided_slice/stack_2", "op": "Const", "attr": {"value": {"tensor": {"dtype": "DT_INT32", "tensorShape": {"dim": [{"size": "1"}]}}}, "dtype": {"type": "DT_INT32"}}}, {"name": "StatefulPartitionedCall/sequential/conv_lst_m2d/TensorArrayV2Stack/TensorListStack/element_shape", "op": "Const", "attr": {"dtype": {"type": "DT_INT32"}, "value": {"tensor": {"dtype": "DT_INT32", "tensorShape": {"dim": [{"size": "4"}]}}}}}, {"name": "StatefulPartitionedCall/sequential/conv_lst_m2d/transpose_1/perm", "op": "Const", "attr": {"value": {"tensor": {"dtype": "DT_INT32", "tensorShape": {"dim": [{"size": "5"}]}}}, "dtype": {"type": "DT_INT32"}}}, {"name": "StatefulPartitionedCall/sequential/batch_normalization/batchnorm/mul", "op": "Const", "attr": {"value": {"tensor": {"dtype": "DT_FLOAT", "tensorShape": {"dim": [{"size": "40"}]}}}, "dtype": {"type": "DT_FLOAT"}}}, {"name": "StatefulPartitionedCall/sequential/batch_normalization/batchnorm/sub", "op": "Const", "attr": {"dtype": {"type": "DT_FLOAT"}, "value": {"tensor": {"dtype": "DT_FLOAT", "tensorShape": {"dim": [{"size": "40"}]}}}}}, {"name": "StatefulPartitionedCall/sequential/max_pooling3d/transpose/perm", "op": "Const", "attr": {"value": {"tensor": {"dtype": "DT_INT32", "tensorShape": {"dim": [{"size": "5"}]}}}, "dtype": {"type": "DT_INT32"}}}, {"name": "StatefulPartitionedCall/sequential/max_pooling3d/transpose_1/perm", "op": "Const", "attr": {"value": {"tensor": {"dtype": "DT_INT32", "tensorShape": {"dim": [{"size": "5"}]}}}, "dtype": {"type": "DT_INT32"}}}, {"name": "StatefulPartitionedCall/sequential/conv_lst_m2d_1/Sum/reduction_indices", "op": "Const", "attr": {"dtype": {"type": "DT_INT32"}, "value": {"tensor": {"dtype": "DT_INT32", "tensorShape": {}}}}}, {"name": "StatefulPartitionedCall/sequential/conv_lst_m2d_1/zeros", "op": "Const", "attr": {"dtype": {"type": "DT_FLOAT"}, "value": {"tensor": {"dtype": "DT_FLOAT", "tensorShape": {"dim": [{"size": "3"}, {"size": "3"}, {"size": "20"}, {"size": "40"}]}}}}}, {"name": "StatefulPartitionedCall/sequential/conv_lst_m2d/time", "op": "Const", "attr": {"dtype": {"type": "DT_INT32"}, "value": {"tensor": {"dtype": "DT_INT32", "tensorShape": {}}}}}, {"name": "StatefulPartitionedCall/sequential/conv_lst_m2d/while/loop_counter", "op": "Const", "attr": {"value": {"tensor": {"dtype": "DT_INT32", "tensorShape": {}}}, "dtype": {"type": "DT_INT32"}}}, {"name": "StatefulPartitionedCall/sequential/conv_lst_m2d/while/maximum_iterations", "op": "Const", "attr": {"value": {"tensor": {"dtype": "DT_INT32", "tensorShape": {}}}, "dtype": {"type": "DT_INT32"}}}, {"name": "Func/StatefulPartitionedCall/input/_1", "op": "Const", "attr": {"value": {"tensor": {"dtype": "DT_FLOAT", "tensorShape": {"dim": [{"size": "3"}, {"size": "3"}, {"size": "128"}, {"size": "160"}]}}}, "dtype": {"type": "DT_FLOAT"}}}, {"name": "Func/StatefulPartitionedCall/input/_2", "op": "Const", "attr": {"dtype": {"type": "DT_FLOAT"}, "value": {"tensor": {"dtype": "DT_FLOAT", "tensorShape": {"dim": [{"size": "3"}, {"size": "3"}, {"size": "40"}, {"size": "160"}]}}}}}, {"name": "Func/StatefulPartitionedCall/input/_3", "op": "Const", "attr": {"value": {"tensor": {"dtype": "DT_FLOAT", "tensorShape": {"dim": [{"size": "160"}]}}}, "dtype": {"type": "DT_FLOAT"}}}, {"name": "StatefulPartitionedCall/sequential/conv_lst_m2d/TensorArrayUnstack/TensorListFromTensor/element_shape", "op": "Const", "attr": {"dtype": {"type": "DT_INT32"}, "value": {"tensor": {"dtype": "DT_INT32", "tensorShape": {"dim": [{"size": "4"}]}}}}}, {"name": "StatefulPartitionedCall/sequential/conv_lst_m2d/TensorArrayV2_1/element_shape", "op": "Const", "attr": {"value": {"tensor": {"dtype": "DT_INT32", "tensorShape": {"dim": [{"size": "4"}]}}}, "dtype": {"type": "DT_INT32"}}}, {"name": "StatefulPartitionedCall/sequential/conv_lst_m2d/transpose/perm", "op": "Const", "attr": {"value": {"tensor": {"dtype": "DT_INT32", "tensorShape": {"dim": [{"size": "5"}]}}}, "dtype": {"type": "DT_INT32"}}}, {"name": "StatefulPartitionedCall/sequential/conv_lst_m2d/strided_slice/stack", "op": "Const", "attr": {"value": {"tensor": {"dtype": "DT_INT32", "tensorShape": {"dim": [{"size": "1"}]}}}, "dtype": {"type": "DT_INT32"}}}, {"name": "StatefulPartitionedCall/sequential/conv_lst_m2d/strided_slice/stack_1", "op": "Const", "attr": {"dtype": {"type": "DT_INT32"}, "value": {"tensor": {"dtype": "DT_INT32", "tensorShape": {"dim": [{"size": "1"}]}}}}}, {"name": "StatefulPartitionedCall/sequential/conv_lst_m2d/strided_slice/stack_2", "op": "Const", "attr": {"dtype": {"type": "DT_INT32"}, "value": {"tensor": {"dtype": "DT_INT32", "tensorShape": {"dim": [{"size": "1"}]}}}}}, {"name": "StatefulPartitionedCall/sequential/conv_lst_m2d/Sum/reduction_indices", "op": "Const", "attr": {"dtype": {"type": "DT_INT32"}, "value": {"tensor": {"dtype": "DT_INT32", "tensorShape": {}}}}}, {"name": "StatefulPartitionedCall/sequential/conv_lst_m2d/zeros", "op": "Const", "attr": {"value": {"tensor": {"dtype": "DT_FLOAT", "tensorShape": {"dim": [{"size": "3"}, {"size": "3"}, {"size": "128"}, {"size": "40"}]}}}, "dtype": {"type": "DT_FLOAT"}}}, {"name": "conv_lst_m2d_input", "op": "Placeholder", "attr": {"shape": {"shape": {"dim": [{"size": "-1"}, {"size": "16"}, {"size": "1"}, {"size": "64"}, {"size": "128"}]}}, "dtype": {"type": "DT_FLOAT"}}}, {"name": "StatefulPartitionedCall/sequential/conv_lst_m2d/transpose", "op": "Transpose", "input": ["conv_lst_m2d_input", "StatefulPartitionedCall/sequential/conv_lst_m2d/transpose/perm"], "attr": {"T": {"type": "DT_FLOAT"}, "Tperm": {"type": "DT_INT32"}}}, {"name": "StatefulPartitionedCall/sequential/conv_lst_m2d/zeros_like", "op": "ZerosLike", "input": ["conv_lst_m2d_input"], "attr": {"T": {"type": "DT_FLOAT"}}}, {"name": "StatefulPartitionedCall/sequential/conv_lst_m2d/TensorArrayUnstack/TensorListFromTensor", "op": "TensorListFromTensor", "input": ["StatefulPartitionedCall/sequential/conv_lst_m2d/transpose", "StatefulPartitionedCall/sequential/conv_lst_m2d/TensorArrayUnstack/TensorListFromTensor/element_shape"], "attr": {"shape_type": {"type": "DT_INT32"}, "element_dtype": {"type": "DT_FLOAT"}}}, {"name": "StatefulPartitionedCall/sequential/conv_lst_m2d/Shape", "op": "Shape", "input": ["StatefulPartitionedCall/sequential/conv_lst_m2d/transpose"], "attr": {"T": {"type": "DT_FLOAT"}, "out_type": {"type": "DT_INT32"}}}, {"name": "StatefulPartitionedCall/sequential/conv_lst_m2d/Sum", "op": "Sum", "input": ["StatefulPartitionedCall/sequential/conv_lst_m2d/zeros_like", "StatefulPartitionedCall/sequential/conv_lst_m2d/Sum/reduction_indices"], "attr": {"Tidx": {"type": "DT_INT32"}, "T": {"type": "DT_FLOAT"}, "keep_dims": {"b": false}}}, {"name": "StatefulPartitionedCall/sequential/conv_lst_m2d/strided_slice", "op": "StridedSlice", "input": ["StatefulPartitionedCall/sequential/conv_lst_m2d/Shape", "StatefulPartitionedCall/sequential/conv_lst_m2d/strided_slice/stack", "StatefulPartitionedCall/sequential/conv_lst_m2d/strided_slice/stack_1", "StatefulPartitionedCall/sequential/conv_lst_m2d/strided_slice/stack_2"], "attr": {"begin_mask": {"i": "0"}, "T": {"type": "DT_INT32"}, "new_axis_mask": {"i": "0"}, "shrink_axis_mask": {"i": "1"}, "Index": {"type": "DT_INT32"}, "end_mask": {"i": "0"}, "ellipsis_mask": {"i": "0"}}}, {"name": "StatefulPartitionedCall/sequential/conv_lst_m2d/convolution", "op": "Conv2D", "input": ["StatefulPartitionedCall/sequential/conv_lst_m2d/Sum", "StatefulPartitionedCall/sequential/conv_lst_m2d/zeros"], "device": "/device:CPU:0", "attr": {"use_cudnn_on_gpu": {"b": true}, "dilations": {"list": {"i": ["1", "1", "1", "1"]}}, "data_format": {"s": "TkhXQw=="}, "explicit_paddings": {"list": {}}, "T": {"type": "DT_FLOAT"}, "padding": {"s": "U0FNRQ=="}, "strides": {"list": {"i": ["1", "1", "1", "1"]}}}}, {"name": "StatefulPartitionedCall/sequential/conv_lst_m2d/TensorArrayV2_1", "op": "TensorListReserve", "input": ["StatefulPartitionedCall/sequential/conv_lst_m2d/TensorArrayV2_1/element_shape", "StatefulPartitionedCall/sequential/conv_lst_m2d/strided_slice"], "attr": {"shape_type": {"type": "DT_INT32"}, "element_dtype": {"type": "DT_FLOAT"}}}, {"name": "StatefulPartitionedCall/sequential/conv_lst_m2d/while/LoopControlInputs/_38", "op": "NoOp", "input": ["^StatefulPartitionedCall/sequential/conv_lst_m2d/TensorArrayUnstack/TensorListFromTensor", "^StatefulPartitionedCall/sequential/conv_lst_m2d/TensorArrayV2_1", "^StatefulPartitionedCall/sequential/conv_lst_m2d/convolution"]}, {"name": "StatefulPartitionedCall/sequential/conv_lst_m2d/while/enter/_33", "op": "Enter", "input": ["StatefulPartitionedCall/sequential/conv_lst_m2d/strided_slice", "^StatefulPartitionedCall/sequential/conv_lst_m2d/while/LoopControlInputs/_38"], "attr": {"is_constant": {"b": false}, "T": {"type": "DT_INT32"}, "parallel_iterations": {"i": "32"}, "frame_name": {"s": "U3RhdGVmdWxQYXJ0aXRpb25lZENhbGwvc2VxdWVudGlhbC9jb252X2xzdF9tMmQvd2hpbGU="}}}, {"name": "StatefulPartitionedCall/sequential/conv_lst_m2d/while/enter/_32", "op": "Enter", "input": ["StatefulPartitionedCall/sequential/conv_lst_m2d/convolution", "^StatefulPartitionedCall/sequential/conv_lst_m2d/while/LoopControlInputs/_38"], "attr": {"frame_name": {"s": "U3RhdGVmdWxQYXJ0aXRpb25lZENhbGwvc2VxdWVudGlhbC9jb252X2xzdF9tMmQvd2hpbGU="}, "T": {"type": "DT_FLOAT"}, "is_constant": {"b": false}, "parallel_iterations": {"i": "32"}}}, {"name": "StatefulPartitionedCall/sequential/conv_lst_m2d/while/enter/_30", "op": "Enter", "input": ["StatefulPartitionedCall/sequential/conv_lst_m2d/TensorArrayV2_1", "^StatefulPartitionedCall/sequential/conv_lst_m2d/while/LoopControlInputs/_38"], "attr": {"frame_name": {"s": "U3RhdGVmdWxQYXJ0aXRpb25lZENhbGwvc2VxdWVudGlhbC9jb252X2xzdF9tMmQvd2hpbGU="}, "T": {"type": "DT_VARIANT"}, "is_constant": {"b": false}, "parallel_iterations": {"i": "32"}}}, {"name": "StatefulPartitionedCall/sequential/conv_lst_m2d/while/enter/_31", "op": "Enter", "input": ["StatefulPartitionedCall/sequential/conv_lst_m2d/convolution", "^StatefulPartitionedCall/sequential/conv_lst_m2d/while/LoopControlInputs/_38"], "attr": {"is_constant": {"b": false}, "T": {"type": "DT_FLOAT"}, "parallel_iterations": {"i": "32"}, "frame_name": {"s": "U3RhdGVmdWxQYXJ0aXRpb25lZENhbGwvc2VxdWVudGlhbC9jb252X2xzdF9tMmQvd2hpbGU="}}}, {"name": "StatefulPartitionedCall/sequential/conv_lst_m2d/while/enter/_34", "op": "Enter", "input": ["StatefulPartitionedCall/sequential/conv_lst_m2d/TensorArrayUnstack/TensorListFromTensor", "^StatefulPartitionedCall/sequential/conv_lst_m2d/while/LoopControlInputs/_38"], "attr": {"frame_name": {"s": "U3RhdGVmdWxQYXJ0aXRpb25lZENhbGwvc2VxdWVudGlhbC9jb252X2xzdF9tMmQvd2hpbGU="}, "T": {"type": "DT_VARIANT"}, "is_constant": {"b": false}, "parallel_iterations": {"i": "32"}}}, {"name": "StatefulPartitionedCall/sequential/conv_lst_m2d/while/enter/_29", "op": "Enter", "input": ["StatefulPartitionedCall/sequential/conv_lst_m2d/time", "^StatefulPartitionedCall/sequential/conv_lst_m2d/while/LoopControlInputs/_38"], "attr": {"frame_name": {"s": "U3RhdGVmdWxQYXJ0aXRpb25lZENhbGwvc2VxdWVudGlhbC9jb252X2xzdF9tMmQvd2hpbGU="}, "T": {"type": "DT_INT32"}, "is_constant": {"b": false}, "parallel_iterations": {"i": "32"}}}, {"name": "StatefulPartitionedCall/sequential/conv_lst_m2d/while/enter/_27", "op": "Enter", "input": ["StatefulPartitionedCall/sequential/conv_lst_m2d/while/loop_counter", "^StatefulPartitionedCall/sequential/conv_lst_m2d/while/LoopControlInputs/_38"], "attr": {"frame_name": {"s": "U3RhdGVmdWxQYXJ0aXRpb25lZENhbGwvc2VxdWVudGlhbC9jb252X2xzdF9tMmQvd2hpbGU="}, "T": {"type": "DT_INT32"}, "is_constant": {"b": false}, "parallel_iterations": {"i": "32"}}}, {"name": "StatefulPartitionedCall/sequential/conv_lst_m2d/while/enter/_28", "op": "Enter", "input": ["StatefulPartitionedCall/sequential/conv_lst_m2d/while/maximum_iterations", "^StatefulPartitionedCall/sequential/conv_lst_m2d/while/LoopControlInputs/_38"], "attr": {"frame_name": {"s": "U3RhdGVmdWxQYXJ0aXRpb25lZENhbGwvc2VxdWVudGlhbC9jb252X2xzdF9tMmQvd2hpbGU="}, "T": {"type": "DT_INT32"}, "is_constant": {"b": false}, "parallel_iterations": {"i": "32"}}}, {"name": "StatefulPartitionedCall/sequential/conv_lst_m2d/while/enter/_35", "op": "Enter", "input": ["Func/StatefulPartitionedCall/input/_1", "^StatefulPartitionedCall/sequential/conv_lst_m2d/while/LoopControlInputs/_38"], "attr": {"frame_name": {"s": "U3RhdGVmdWxQYXJ0aXRpb25lZENhbGwvc2VxdWVudGlhbC9jb252X2xzdF9tMmQvd2hpbGU="}, "T": {"type": "DT_FLOAT"}, "is_constant": {"b": true}, "parallel_iterations": {"i": "32"}}}, {"name": "StatefulPartitionedCall/sequential/conv_lst_m2d/while/enter/_36", "op": "Enter", "input": ["Func/StatefulPartitionedCall/input/_2", "^StatefulPartitionedCall/sequential/conv_lst_m2d/while/LoopControlInputs/_38"], "attr": {"is_constant": {"b": true}, "frame_name": {"s": "U3RhdGVmdWxQYXJ0aXRpb25lZENhbGwvc2VxdWVudGlhbC9jb252X2xzdF9tMmQvd2hpbGU="}, "parallel_iterations": {"i": "32"}, "T": {"type": "DT_FLOAT"}}}, {"name": "StatefulPartitionedCall/sequential/conv_lst_m2d/while/enter/_37", "op": "Enter", "input": ["Func/StatefulPartitionedCall/input/_3", "^StatefulPartitionedCall/sequential/conv_lst_m2d/while/LoopControlInputs/_38"], "attr": {"is_constant": {"b": true}, "frame_name": {"s": "U3RhdGVmdWxQYXJ0aXRpb25lZENhbGwvc2VxdWVudGlhbC9jb252X2xzdF9tMmQvd2hpbGU="}, "parallel_iterations": {"i": "32"}, "T": {"type": "DT_FLOAT"}}}, {"name": "StatefulPartitionedCall/sequential/conv_lst_m2d/while/merge/_45", "op": "Merge", "input": ["StatefulPartitionedCall/sequential/conv_lst_m2d/while/enter/_33", "StatefulPartitionedCall/sequential/conv_lst_m2d/while/next_iteration/_72"], "attr": {"T": {"type": "DT_INT32"}, "N": {"i": "2"}}}, {"name": "StatefulPartitionedCall/sequential/conv_lst_m2d/while/merge/_44", "op": "Merge", "input": ["StatefulPartitionedCall/sequential/conv_lst_m2d/while/enter/_32", "StatefulPartitionedCall/sequential/conv_lst_m2d/while/next_iteration/_71"], "attr": {"N": {"i": "2"}, "T": {"type": "DT_FLOAT"}}}, {"name": "StatefulPartitionedCall/sequential/conv_lst_m2d/while/merge/_42", "op": "Merge", "input": ["StatefulPartitionedCall/sequential/conv_lst_m2d/while/enter/_30", "StatefulPartitionedCall/sequential/conv_lst_m2d/while/next_iteration/_69"], "attr": {"T": {"type": "DT_VARIANT"}, "N": {"i": "2"}}}, {"name": "StatefulPartitionedCall/sequential/conv_lst_m2d/while/merge/_43", "op": "Merge", "input": ["StatefulPartitionedCall/sequential/conv_lst_m2d/while/enter/_31", "StatefulPartitionedCall/sequential/conv_lst_m2d/while/next_iteration/_70"], "attr": {"T": {"type": "DT_FLOAT"}, "N": {"i": "2"}}}, {"name": "StatefulPartitionedCall/sequential/conv_lst_m2d/while/merge/_46", "op": "Merge", "input": ["StatefulPartitionedCall/sequential/conv_lst_m2d/while/enter/_34", "StatefulPartitionedCall/sequential/conv_lst_m2d/while/next_iteration/_73"], "attr": {"N": {"i": "2"}, "T": {"type": "DT_VARIANT"}}}, {"name": "StatefulPartitionedCall/sequential/conv_lst_m2d/while/merge/_41", "op": "Merge", "input": ["StatefulPartitionedCall/sequential/conv_lst_m2d/while/enter/_29", "StatefulPartitionedCall/sequential/conv_lst_m2d/while/next_iteration/_68"], "attr": {"N": {"i": "2"}, "T": {"type": "DT_INT32"}}}, {"name": "StatefulPartitionedCall/sequential/conv_lst_m2d/while/merge/_39", "op": "Merge", "input": ["StatefulPartitionedCall/sequential/conv_lst_m2d/while/enter/_27", "StatefulPartitionedCall/sequential/conv_lst_m2d/while/next_iteration/_66"], "attr": {"N": {"i": "2"}, "T": {"type": "DT_INT32"}}}, {"name": "StatefulPartitionedCall/sequential/conv_lst_m2d/while/merge/_40", "op": "Merge", "input": ["StatefulPartitionedCall/sequential/conv_lst_m2d/while/enter/_28", "StatefulPartitionedCall/sequential/conv_lst_m2d/while/next_iteration/_67"], "attr": {"N": {"i": "2"}, "T": {"type": "DT_INT32"}}}, {"name": "StatefulPartitionedCall/sequential/conv_lst_m2d/while/cond/_25/sequential/conv_lst_m2d/while/Less", "op": "Less", "input": ["StatefulPartitionedCall/sequential/conv_lst_m2d/while/merge/_41", "StatefulPartitionedCall/sequential/conv_lst_m2d/while/merge/_45", "^StatefulPartitionedCall/sequential/conv_lst_m2d/while/merge/_46", "^StatefulPartitionedCall/sequential/conv_lst_m2d/while/enter/_35", "^StatefulPartitionedCall/sequential/conv_lst_m2d/while/enter/_36", "^StatefulPartitionedCall/sequential/conv_lst_m2d/while/enter/_37", "^StatefulPartitionedCall/sequential/conv_lst_m2d/while/merge/_39", "^StatefulPartitionedCall/sequential/conv_lst_m2d/while/merge/_40", "^StatefulPartitionedCall/sequential/conv_lst_m2d/while/merge/_42", "^StatefulPartitionedCall/sequential/conv_lst_m2d/while/merge/_43", "^StatefulPartitionedCall/sequential/conv_lst_m2d/while/merge/_44"], "attr": {"T": {"type": "DT_INT32"}}}, {"name": "StatefulPartitionedCall/sequential/conv_lst_m2d/while/LoopCond/_47", "op": "LoopCond", "input": ["StatefulPartitionedCall/sequential/conv_lst_m2d/while/cond/_25/sequential/conv_lst_m2d/while/Less"]}, {"name": "StatefulPartitionedCall/sequential/conv_lst_m2d/while/StatefulPartitionedCall/sequential/conv_lst_m2d/TensorArrayV2_1_switch/_51", "op": "Switch", "input": ["StatefulPartitionedCall/sequential/conv_lst_m2d/while/merge/_42", "StatefulPartitionedCall/sequential/conv_lst_m2d/while/LoopCond/_47"], "attr": {"T": {"type": "DT_VARIANT"}}}, {"name": "StatefulPartitionedCall/sequential/conv_lst_m2d/while/StatefulPartitionedCall/sequential/conv_lst_m2d/TensorArrayUnstack/TensorListFromTensor_switch/_55", "op": "Switch", "input": ["StatefulPartitionedCall/sequential/conv_lst_m2d/while/merge/_46", "StatefulPartitionedCall/sequential/conv_lst_m2d/while/LoopCond/_47"], "attr": {"T": {"type": "DT_VARIANT"}}}, {"name": "StatefulPartitionedCall/sequential/conv_lst_m2d/while/StatefulPartitionedCall/sequential/conv_lst_m2d/convolution_switch/_52", "op": "Switch", "input": ["StatefulPartitionedCall/sequential/conv_lst_m2d/while/merge/_43", "StatefulPartitionedCall/sequential/conv_lst_m2d/while/LoopCond/_47"], "attr": {"T": {"type": "DT_FLOAT"}}}, {"name": "StatefulPartitionedCall/sequential/conv_lst_m2d/while/StatefulPartitionedCall/sequential/conv_lst_m2d/convolution_switch/_53", "op": "Switch", "input": ["StatefulPartitionedCall/sequential/conv_lst_m2d/while/merge/_44", "StatefulPartitionedCall/sequential/conv_lst_m2d/while/LoopCond/_47"], "attr": {"T": {"type": "DT_FLOAT"}}}, {"name": "StatefulPartitionedCall/sequential/conv_lst_m2d/while/StatefulPartitionedCall/sequential/conv_lst_m2d/time_switch/_50", "op": "Switch", "input": ["StatefulPartitionedCall/sequential/conv_lst_m2d/while/merge/_41", "StatefulPartitionedCall/sequential/conv_lst_m2d/while/LoopCond/_47"], "attr": {"T": {"type": "DT_INT32"}}}, {"name": "StatefulPartitionedCall/sequential/conv_lst_m2d/while/StatefulPartitionedCall/sequential/conv_lst_m2d/while/loop_counter_switch/_48", "op": "Switch", "input": ["StatefulPartitionedCall/sequential/conv_lst_m2d/while/merge/_39", "StatefulPartitionedCall/sequential/conv_lst_m2d/while/LoopCond/_47"], "attr": {"T": {"type": "DT_INT32"}}}, {"name": "StatefulPartitionedCall/sequential/conv_lst_m2d/while/StatefulPartitionedCall/sequential/conv_lst_m2d/while/maximum_iterations_switch/_49", "op": "Switch", "input": ["StatefulPartitionedCall/sequential/conv_lst_m2d/while/merge/_40", "StatefulPartitionedCall/sequential/conv_lst_m2d/while/LoopCond/_47"], "attr": {"T": {"type": "DT_INT32"}}}, {"name": "StatefulPartitionedCall/sequential/conv_lst_m2d/while/StatefulPartitionedCall/sequential/conv_lst_m2d/strided_slice_switch/_54", "op": "Switch", "input": ["StatefulPartitionedCall/sequential/conv_lst_m2d/while/merge/_45", "StatefulPartitionedCall/sequential/conv_lst_m2d/while/LoopCond/_47"], "attr": {"T": {"type": "DT_INT32"}}}, {"name": "StatefulPartitionedCall/sequential/conv_lst_m2d/while/exit/_60", "op": "Exit", "input": ["StatefulPartitionedCall/sequential/conv_lst_m2d/while/StatefulPartitionedCall/sequential/conv_lst_m2d/TensorArrayV2_1_switch/_51"], "attr": {"T": {"type": "DT_VARIANT"}}}, {"name": "StatefulPartitionedCall/sequential/conv_lst_m2d/while/exit/_64", "op": "Exit", "input": ["StatefulPartitionedCall/sequential/conv_lst_m2d/while/StatefulPartitionedCall/sequential/conv_lst_m2d/TensorArrayUnstack/TensorListFromTensor_switch/_55"], "attr": {"T": {"type": "DT_VARIANT"}}}, {"name": "StatefulPartitionedCall/sequential/conv_lst_m2d/while/exit/_61", "op": "Exit", "input": ["StatefulPartitionedCall/sequential/conv_lst_m2d/while/StatefulPartitionedCall/sequential/conv_lst_m2d/convolution_switch/_52"], "attr": {"T": {"type": "DT_FLOAT"}}}, {"name": "StatefulPartitionedCall/sequential/conv_lst_m2d/while/exit/_62", "op": "Exit", "input": ["StatefulPartitionedCall/sequential/conv_lst_m2d/while/StatefulPartitionedCall/sequential/conv_lst_m2d/convolution_switch/_53"], "attr": {"T": {"type": "DT_FLOAT"}}}, {"name": "StatefulPartitionedCall/sequential/conv_lst_m2d/while/exit/_59", "op": "Exit", "input": ["StatefulPartitionedCall/sequential/conv_lst_m2d/while/StatefulPartitionedCall/sequential/conv_lst_m2d/time_switch/_50"], "attr": {"T": {"type": "DT_INT32"}}}, {"name": "StatefulPartitionedCall/sequential/conv_lst_m2d/while/exit/_57", "op": "Exit", "input": ["StatefulPartitionedCall/sequential/conv_lst_m2d/while/StatefulPartitionedCall/sequential/conv_lst_m2d/while/loop_counter_switch/_48"], "attr": {"T": {"type": "DT_INT32"}}}, {"name": "StatefulPartitionedCall/sequential/conv_lst_m2d/while/loop_body_control/_56", "op": "Identity", "input": ["StatefulPartitionedCall/sequential/conv_lst_m2d/while/StatefulPartitionedCall/sequential/conv_lst_m2d/while/loop_counter_switch/_48:1"], "attr": {"T": {"type": "DT_INT32"}}}, {"name": "StatefulPartitionedCall/sequential/conv_lst_m2d/while/exit/_58", "op": "Exit", "input": ["StatefulPartitionedCall/sequential/conv_lst_m2d/while/StatefulPartitionedCall/sequential/conv_lst_m2d/while/maximum_iterations_switch/_49"], "attr": {"T": {"type": "DT_INT32"}}}, {"name": "StatefulPartitionedCall/sequential/conv_lst_m2d/while/exit/_63", "op": "Exit", "input": ["StatefulPartitionedCall/sequential/conv_lst_m2d/while/StatefulPartitionedCall/sequential/conv_lst_m2d/strided_slice_switch/_54"], "attr": {"T": {"type": "DT_INT32"}}}, {"name": "StatefulPartitionedCall/sequential/conv_lst_m2d/TensorArrayV2Stack/TensorListStack", "op": "TensorListStack", "input": ["StatefulPartitionedCall/sequential/conv_lst_m2d/while/exit/_60", "StatefulPartitionedCall/sequential/conv_lst_m2d/TensorArrayV2Stack/TensorListStack/element_shape"], "attr": {"element_dtype": {"type": "DT_FLOAT"}, "num_elements": {"i": "-1"}}}, {"name": "Func/StatefulPartitionedCall/sequential/conv_lst_m2d/while/body/_26/input_control_node/_136", "op": "NoOp", "input": ["^StatefulPartitionedCall/sequential/conv_lst_m2d/while/StatefulPartitionedCall/sequential/conv_lst_m2d/TensorArrayUnstack/TensorListFromTensor_switch/_55", "^StatefulPartitionedCall/sequential/conv_lst_m2d/while/StatefulPartitionedCall/sequential/conv_lst_m2d/TensorArrayV2_1_switch/_51", "^StatefulPartitionedCall/sequential/conv_lst_m2d/while/StatefulPartitionedCall/sequential/conv_lst_m2d/convolution_switch/_52", "^StatefulPartitionedCall/sequential/conv_lst_m2d/while/StatefulPartitionedCall/sequential/conv_lst_m2d/convolution_switch/_53", "^StatefulPartitionedCall/sequential/conv_lst_m2d/while/StatefulPartitionedCall/sequential/conv_lst_m2d/strided_slice_switch/_54", "^StatefulPartitionedCall/sequential/conv_lst_m2d/while/StatefulPartitionedCall/sequential/conv_lst_m2d/time_switch/_50", "^StatefulPartitionedCall/sequential/conv_lst_m2d/while/loop_body_control/_56", "^StatefulPartitionedCall/sequential/conv_lst_m2d/while/StatefulPartitionedCall/sequential/conv_lst_m2d/while/maximum_iterations_switch/_49", "^StatefulPartitionedCall/sequential/conv_lst_m2d/while/enter/_35", "^StatefulPartitionedCall/sequential/conv_lst_m2d/while/enter/_36", "^StatefulPartitionedCall/sequential/conv_lst_m2d/while/enter/_37"]}, {"name": "StatefulPartitionedCall/sequential/conv_lst_m2d/transpose_1", "op": "Transpose", "input": ["StatefulPartitionedCall/sequential/conv_lst_m2d/TensorArrayV2Stack/TensorListStack", "StatefulPartitionedCall/sequential/conv_lst_m2d/transpose_1/perm"], "attr": {"Tperm": {"type": "DT_INT32"}, "T": {"type": "DT_FLOAT"}}}, {"name": "StatefulPartitionedCall/sequential/conv_lst_m2d/while/next_iteration/_72", "op": "NextIteration", "input": ["StatefulPartitionedCall/sequential/conv_lst_m2d/while/StatefulPartitionedCall/sequential/conv_lst_m2d/strided_slice_switch/_54:1", "^Func/StatefulPartitionedCall/sequential/conv_lst_m2d/while/body/_26/input_control_node/_136"], "attr": {"T": {"type": "DT_INT32"}}}, {"name": "ConstantFolding/StatefulPartitionedCall/sequential/conv_lst_m2d/while/body/_26/sequential/conv_lst_m2d/while/split-folded-3", "op": "Const", "input": ["^Func/StatefulPartitionedCall/sequential/conv_lst_m2d/while/body/_26/input_control_node/_136", "^StatefulPartitionedCall/sequential/conv_lst_m2d/while/enter/_35"], "attr": {"value": {"tensor": {"dtype": "DT_FLOAT", "tensorShape": {"dim": [{"size": "3"}, {"size": "3"}, {"size": "128"}, {"size": "40"}]}}}, "dtype": {"type": "DT_FLOAT"}}}, {"name": "ConstantFolding/StatefulPartitionedCall/sequential/conv_lst_m2d/while/body/_26/sequential/conv_lst_m2d/while/split_1-folded-3", "op": "Const", "input": ["^Func/StatefulPartitionedCall/sequential/conv_lst_m2d/while/body/_26/input_control_node/_136", "^StatefulPartitionedCall/sequential/conv_lst_m2d/while/enter/_36"], "attr": {"value": {"tensor": {"dtype": "DT_FLOAT", "tensorShape": {"dim": [{"size": "3"}, {"size": "3"}, {"size": "40"}, {"size": "40"}]}}}, "dtype": {"type": "DT_FLOAT"}}}, {"name": "StatefulPartitionedCall/sequential/conv_lst_m2d/while/body/_26/sequential/conv_lst_m2d/while/Const_7", "op": "Const", "input": ["^Func/StatefulPartitionedCall/sequential/conv_lst_m2d/while/body/_26/input_control_node/_136"], "attr": {"value": {"tensor": {"dtype": "DT_FLOAT", "tensorShape": {}}}, "dtype": {"type": "DT_FLOAT"}}}, {"name": "StatefulPartitionedCall/sequential/conv_lst_m2d/while/body/_26/sequential/conv_lst_m2d/while/Const_8", "op": "Const", "input": ["^Func/StatefulPartitionedCall/sequential/conv_lst_m2d/while/body/_26/input_control_node/_136"], "attr": {"value": {"tensor": {"dtype": "DT_FLOAT", "tensorShape": {}}}, "dtype": {"type": "DT_FLOAT"}}}, {"name": "StatefulPartitionedCall/sequential/conv_lst_m2d/while/body/_26/sequential/conv_lst_m2d/while/clip_by_value_2/Minimum/y", "op": "Const", "input": ["^Func/StatefulPartitionedCall/sequential/conv_lst_m2d/while/body/_26/input_control_node/_136"], "attr": {"value": {"tensor": {"dtype": "DT_FLOAT", "tensorShape": {}}}, "dtype": {"type": "DT_FLOAT"}}}, {"name": "StatefulPartitionedCall/sequential/conv_lst_m2d/while/body/_26/sequential/conv_lst_m2d/while/clip_by_value_2/y", "op": "Const", "input": ["^Func/StatefulPartitionedCall/sequential/conv_lst_m2d/while/body/_26/input_control_node/_136"], "attr": {"value": {"tensor": {"dtype": "DT_FLOAT", "tensorShape": {}}}, "dtype": {"type": "DT_FLOAT"}}}, {"name": "ConstantFolding/StatefulPartitionedCall/sequential/conv_lst_m2d/while/body/_26/sequential/conv_lst_m2d/while/split-folded-1", "op": "Const", "input": ["^Func/StatefulPartitionedCall/sequential/conv_lst_m2d/while/body/_26/input_control_node/_136", "^StatefulPartitionedCall/sequential/conv_lst_m2d/while/enter/_35"], "attr": {"value": {"tensor": {"dtype": "DT_FLOAT", "tensorShape": {"dim": [{"size": "3"}, {"size": "3"}, {"size": "128"}, {"size": "40"}]}}}, "dtype": {"type": "DT_FLOAT"}}}, {"name": "ConstantFolding/StatefulPartitionedCall/sequential/conv_lst_m2d/while/body/_26/sequential/conv_lst_m2d/while/split_1-folded-1", "op": "Const", "input": ["^Func/StatefulPartitionedCall/sequential/conv_lst_m2d/while/body/_26/input_control_node/_136", "^StatefulPartitionedCall/sequential/conv_lst_m2d/while/enter/_36"], "attr": {"value": {"tensor": {"dtype": "DT_FLOAT", "tensorShape": {"dim": [{"size": "3"}, {"size": "3"}, {"size": "40"}, {"size": "40"}]}}}, "dtype": {"type": "DT_FLOAT"}}}, {"name": "StatefulPartitionedCall/sequential/conv_lst_m2d/while/body/_26/sequential/conv_lst_m2d/while/Const_5", "op": "Const", "input": ["^Func/StatefulPartitionedCall/sequential/conv_lst_m2d/while/body/_26/input_control_node/_136"], "attr": {"value": {"tensor": {"dtype": "DT_FLOAT", "tensorShape": {}}}, "dtype": {"type": "DT_FLOAT"}}}, {"name": "StatefulPartitionedCall/sequential/conv_lst_m2d/while/body/_26/sequential/conv_lst_m2d/while/Const_6", "op": "Const", "input": ["^Func/StatefulPartitionedCall/sequential/conv_lst_m2d/while/body/_26/input_control_node/_136"], "attr": {"value": {"tensor": {"dtype": "DT_FLOAT", "tensorShape": {}}}, "dtype": {"type": "DT_FLOAT"}}}, {"name": "StatefulPartitionedCall/sequential/conv_lst_m2d/while/body/_26/sequential/conv_lst_m2d/while/clip_by_value_1/Minimum/y", "op": "Const", "input": ["^Func/StatefulPartitionedCall/sequential/conv_lst_m2d/while/body/_26/input_control_node/_136"], "attr": {"value": {"tensor": {"dtype": "DT_FLOAT", "tensorShape": {}}}, "dtype": {"type": "DT_FLOAT"}}}, {"name": "StatefulPartitionedCall/sequential/conv_lst_m2d/while/body/_26/sequential/conv_lst_m2d/while/clip_by_value_1/y", "op": "Const", "input": ["^Func/StatefulPartitionedCall/sequential/conv_lst_m2d/while/body/_26/input_control_node/_136"], "attr": {"value": {"tensor": {"dtype": "DT_FLOAT", "tensorShape": {}}}, "dtype": {"type": "DT_FLOAT"}}}, {"name": "ConstantFolding/StatefulPartitionedCall/sequential/conv_lst_m2d/while/body/_26/sequential/conv_lst_m2d/while/split-folded-0", "op": "Const", "input": ["^Func/StatefulPartitionedCall/sequential/conv_lst_m2d/while/body/_26/input_control_node/_136", "^StatefulPartitionedCall/sequential/conv_lst_m2d/while/enter/_35"], "attr": {"value": {"tensor": {"dtype": "DT_FLOAT", "tensorShape": {"dim": [{"size": "3"}, {"size": "3"}, {"size": "128"}, {"size": "40"}]}}}, "dtype": {"type": "DT_FLOAT"}}}, {"name": "ConstantFolding/StatefulPartitionedCall/sequential/conv_lst_m2d/while/body/_26/sequential/conv_lst_m2d/while/split_1-folded-0", "op": "Const", "input": ["^Func/StatefulPartitionedCall/sequential/conv_lst_m2d/while/body/_26/input_control_node/_136", "^StatefulPartitionedCall/sequential/conv_lst_m2d/while/enter/_36"], "attr": {"value": {"tensor": {"dtype": "DT_FLOAT", "tensorShape": {"dim": [{"size": "3"}, {"size": "3"}, {"size": "40"}, {"size": "40"}]}}}, "dtype": {"type": "DT_FLOAT"}}}, {"name": "StatefulPartitionedCall/sequential/conv_lst_m2d/while/body/_26/sequential/conv_lst_m2d/while/Const_3", "op": "Const", "input": ["^Func/StatefulPartitionedCall/sequential/conv_lst_m2d/while/body/_26/input_control_node/_136"], "attr": {"value": {"tensor": {"dtype": "DT_FLOAT", "tensorShape": {}}}, "dtype": {"type": "DT_FLOAT"}}}, {"name": "StatefulPartitionedCall/sequential/conv_lst_m2d/while/body/_26/sequential/conv_lst_m2d/while/Const_4", "op": "Const", "input": ["^Func/StatefulPartitionedCall/sequential/conv_lst_m2d/while/body/_26/input_control_node/_136"], "attr": {"value": {"tensor": {"dtype": "DT_FLOAT", "tensorShape": {}}}, "dtype": {"type": "DT_FLOAT"}}}, {"name": "StatefulPartitionedCall/sequential/conv_lst_m2d/while/body/_26/sequential/conv_lst_m2d/while/clip_by_value/Minimum/y", "op": "Const", "input": ["^Func/StatefulPartitionedCall/sequential/conv_lst_m2d/while/body/_26/input_control_node/_136"], "attr": {"value": {"tensor": {"dtype": "DT_FLOAT", "tensorShape": {}}}, "dtype": {"type": "DT_FLOAT"}}}, {"name": "StatefulPartitionedCall/sequential/conv_lst_m2d/while/body/_26/sequential/conv_lst_m2d/while/clip_by_value/y", "op": "Const", "input": ["^Func/StatefulPartitionedCall/sequential/conv_lst_m2d/while/body/_26/input_control_node/_136"], "attr": {"value": {"tensor": {"dtype": "DT_FLOAT", "tensorShape": {}}}, "dtype": {"type": "DT_FLOAT"}}}, {"name": "StatefulPartitionedCall/sequential/conv_lst_m2d/while/next_iteration/_73", "op": "NextIteration", "input": ["StatefulPartitionedCall/sequential/conv_lst_m2d/while/StatefulPartitionedCall/sequential/conv_lst_m2d/TensorArrayUnstack/TensorListFromTensor_switch/_55:1", "^Func/StatefulPartitionedCall/sequential/conv_lst_m2d/while/body/_26/input_control_node/_136"], "attr": {"T": {"type": "DT_VARIANT"}}}, {"name": "StatefulPartitionedCall/sequential/conv_lst_m2d/while/body/_26/sequential/conv_lst_m2d/while/TensorArrayV2Read/TensorListGetItem/element_shape", "op": "Const", "input": ["^Func/StatefulPartitionedCall/sequential/conv_lst_m2d/while/body/_26/input_control_node/_136"], "attr": {"value": {"tensor": {"dtype": "DT_INT32", "tensorShape": {"dim": [{"size": "4"}]}}}, "dtype": {"type": "DT_INT32"}}}, {"name": "ConstantFolding/StatefulPartitionedCall/sequential/conv_lst_m2d/while/body/_26/sequential/conv_lst_m2d/while/split-folded-2", "op": "Const", "input": ["^Func/StatefulPartitionedCall/sequential/conv_lst_m2d/while/body/_26/input_control_node/_136", "^StatefulPartitionedCall/sequential/conv_lst_m2d/while/enter/_35"], "attr": {"value": {"tensor": {"dtype": "DT_FLOAT", "tensorShape": {"dim": [{"size": "3"}, {"size": "3"}, {"size": "128"}, {"size": "40"}]}}}, "dtype": {"type": "DT_FLOAT"}}}, {"name": "Func/StatefulPartitionedCall/sequential/conv_lst_m2d/while/body/_26/input/_141", "op": "Identity", "input": ["StatefulPartitionedCall/sequential/conv_lst_m2d/while/StatefulPartitionedCall/sequential/conv_lst_m2d/convolution_switch/_52:1", "^Func/StatefulPartitionedCall/sequential/conv_lst_m2d/while/body/_26/input_control_node/_136"], "attr": {"T": {"type": "DT_FLOAT"}}}, {"name": "ConstantFolding/StatefulPartitionedCall/sequential/conv_lst_m2d/while/body/_26/sequential/conv_lst_m2d/while/split_1-folded-2", "op": "Const", "input": ["^Func/StatefulPartitionedCall/sequential/conv_lst_m2d/while/body/_26/input_control_node/_136", "^StatefulPartitionedCall/sequential/conv_lst_m2d/while/enter/_36"], "attr": {"value": {"tensor": {"dtype": "DT_FLOAT", "tensorShape": {"dim": [{"size": "3"}, {"size": "3"}, {"size": "40"}, {"size": "40"}]}}}, "dtype": {"type": "DT_FLOAT"}}}, {"name": "Func/StatefulPartitionedCall/sequential/conv_lst_m2d/while/body/_26/input/_139", "op": "Identity", "input": ["StatefulPartitionedCall/sequential/conv_lst_m2d/while/StatefulPartitionedCall/sequential/conv_lst_m2d/time_switch/_50:1", "^Func/StatefulPartitionedCall/sequential/conv_lst_m2d/while/body/_26/input_control_node/_136"], "attr": {"T": {"type": "DT_INT32"}}}, {"name": "StatefulPartitionedCall/sequential/conv_lst_m2d/while/body/_26/sequential/conv_lst_m2d/while/add_8/y", "op": "Const", "input": ["^Func/StatefulPartitionedCall/sequential/conv_lst_m2d/while/body/_26/input_control_node/_136"], "attr": {"value": {"tensor": {"dtype": "DT_INT32", "tensorShape": {}}}, "dtype": {"type": "DT_INT32"}}}, {"name": "StatefulPartitionedCall/sequential/conv_lst_m2d/while/body/_26/sequential/conv_lst_m2d/while/add_9/y", "op": "Const", "input": ["^Func/StatefulPartitionedCall/sequential/conv_lst_m2d/while/body/_26/input_control_node/_136"], "attr": {"value": {"tensor": {"dtype": "DT_INT32", "tensorShape": {}}}, "dtype": {"type": "DT_INT32"}}}, {"name": "StatefulPartitionedCall/sequential/conv_lst_m2d/while/next_iteration/_67", "op": "NextIteration", "input": ["StatefulPartitionedCall/sequential/conv_lst_m2d/while/StatefulPartitionedCall/sequential/conv_lst_m2d/while/maximum_iterations_switch/_49:1", "^Func/StatefulPartitionedCall/sequential/conv_lst_m2d/while/body/_26/input_control_node/_136"], "attr": {"T": {"type": "DT_INT32"}}}, {"name": "ConstantFolding/StatefulPartitionedCall/sequential/conv_lst_m2d/while/body/_26/sequential/conv_lst_m2d/while/split_2-folded-3", "op": "Const", "input": ["^Func/StatefulPartitionedCall/sequential/conv_lst_m2d/while/body/_26/input_control_node/_136", "^StatefulPartitionedCall/sequential/conv_lst_m2d/while/enter/_37"], "attr": {"dtype": {"type": "DT_FLOAT"}, "value": {"tensor": {"dtype": "DT_FLOAT", "tensorShape": {"dim": [{"size": "40"}]}}}}}, {"name": "ConstantFolding/StatefulPartitionedCall/sequential/conv_lst_m2d/while/body/_26/sequential/conv_lst_m2d/while/split_2-folded-1", "op": "Const", "input": ["^Func/StatefulPartitionedCall/sequential/conv_lst_m2d/while/body/_26/input_control_node/_136", "^StatefulPartitionedCall/sequential/conv_lst_m2d/while/enter/_37"], "attr": {"value": {"tensor": {"dtype": "DT_FLOAT", "tensorShape": {"dim": [{"size": "40"}]}}}, "dtype": {"type": "DT_FLOAT"}}}, {"name": "ConstantFolding/StatefulPartitionedCall/sequential/conv_lst_m2d/while/body/_26/sequential/conv_lst_m2d/while/split_2-folded-0", "op": "Const", "input": ["^Func/StatefulPartitionedCall/sequential/conv_lst_m2d/while/body/_26/input_control_node/_136", "^StatefulPartitionedCall/sequential/conv_lst_m2d/while/enter/_37"], "attr": {"dtype": {"type": "DT_FLOAT"}, "value": {"tensor": {"dtype": "DT_FLOAT", "tensorShape": {"dim": [{"size": "40"}]}}}}}, {"name": "ConstantFolding/StatefulPartitionedCall/sequential/conv_lst_m2d/while/body/_26/sequential/conv_lst_m2d/while/split_2-folded-2", "op": "Const", "input": ["^Func/StatefulPartitionedCall/sequential/conv_lst_m2d/while/body/_26/input_control_node/_136", "^StatefulPartitionedCall/sequential/conv_lst_m2d/while/enter/_37"], "attr": {"dtype": {"type": "DT_FLOAT"}, "value": {"tensor": {"dtype": "DT_FLOAT", "tensorShape": {"dim": [{"size": "40"}]}}}}}, {"name": "StatefulPartitionedCall/sequential/batch_normalization/batchnorm/mul_1", "op": "Mul", "input": ["StatefulPartitionedCall/sequential/conv_lst_m2d/transpose_1", "StatefulPartitionedCall/sequential/batch_normalization/batchnorm/mul"], "attr": {"T": {"type": "DT_FLOAT"}}}, {"name": "StatefulPartitionedCall/sequential/conv_lst_m2d/while/body/_26/sequential/conv_lst_m2d/while/convolution_7", "op": "Conv2D", "input": ["Func/StatefulPartitionedCall/sequential/conv_lst_m2d/while/body/_26/input/_141", "ConstantFolding/StatefulPartitionedCall/sequential/conv_lst_m2d/while/body/_26/sequential/conv_lst_m2d/while/split_1-folded-3"], "device": "/device:CPU:0", "attr": {"dilations": {"list": {"i": ["1", "1", "1", "1"]}}, "explicit_paddings": {"list": {}}, "data_format": {"s": "TkhXQw=="}, "strides": {"list": {"i": ["1", "1", "1", "1"]}}, "padding": {"s": "U0FNRQ=="}, "T": {"type": "DT_FLOAT"}, "use_cudnn_on_gpu": {"b": true}}}, {"name": "StatefulPartitionedCall/sequential/conv_lst_m2d/while/body/_26/sequential/conv_lst_m2d/while/convolution_5", "op": "Conv2D", "input": ["Func/StatefulPartitionedCall/sequential/conv_lst_m2d/while/body/_26/input/_141", "ConstantFolding/StatefulPartitionedCall/sequential/conv_lst_m2d/while/body/_26/sequential/conv_lst_m2d/while/split_1-folded-1"], "device": "/device:CPU:0", "attr": {"T": {"type": "DT_FLOAT"}, "padding": {"s": "U0FNRQ=="}, "use_cudnn_on_gpu": {"b": true}, "dilations": {"list": {"i": ["1", "1", "1", "1"]}}, "data_format": {"s": "TkhXQw=="}, "explicit_paddings": {"list": {}}, "strides": {"list": {"i": ["1", "1", "1", "1"]}}}}, {"name": "StatefulPartitionedCall/sequential/conv_lst_m2d/while/body/_26/sequential/conv_lst_m2d/while/convolution_4", "op": "Conv2D", "input": ["Func/StatefulPartitionedCall/sequential/conv_lst_m2d/while/body/_26/input/_141", "ConstantFolding/StatefulPartitionedCall/sequential/conv_lst_m2d/while/body/_26/sequential/conv_lst_m2d/while/split_1-folded-0"], "device": "/device:CPU:0", "attr": {"dilations": {"list": {"i": ["1", "1", "1", "1"]}}, "explicit_paddings": {"list": {}}, "data_format": {"s": "TkhXQw=="}, "strides": {"list": {"i": ["1", "1", "1", "1"]}}, "padding": {"s": "U0FNRQ=="}, "T": {"type": "DT_FLOAT"}, "use_cudnn_on_gpu": {"b": true}}}, {"name": "StatefulPartitionedCall/sequential/conv_lst_m2d/while/body/_26/sequential/conv_lst_m2d/while/convolution_6", "op": "Conv2D", "input": ["Func/StatefulPartitionedCall/sequential/conv_lst_m2d/while/body/_26/input/_141", "ConstantFolding/StatefulPartitionedCall/sequential/conv_lst_m2d/while/body/_26/sequential/conv_lst_m2d/while/split_1-folded-2"], "device": "/device:CPU:0", "attr": {"dilations": {"list": {"i": ["1", "1", "1", "1"]}}, "explicit_paddings": {"list": {}}, "data_format": {"s": "TkhXQw=="}, "strides": {"list": {"i": ["1", "1", "1", "1"]}}, "padding": {"s": "U0FNRQ=="}, "T": {"type": "DT_FLOAT"}, "use_cudnn_on_gpu": {"b": true}}}, {"name": "StatefulPartitionedCall/sequential/conv_lst_m2d/while/body/_26/sequential/conv_lst_m2d/while/TensorArrayV2Read/TensorListGetItem", "op": "TensorListGetItem", "input": ["StatefulPartitionedCall/sequential/conv_lst_m2d/while/StatefulPartitionedCall/sequential/conv_lst_m2d/TensorArrayUnstack/TensorListFromTensor_switch/_55:1", "Func/StatefulPartitionedCall/sequential/conv_lst_m2d/while/body/_26/input/_139", "StatefulPartitionedCall/sequential/conv_lst_m2d/while/body/_26/sequential/conv_lst_m2d/while/TensorArrayV2Read/TensorListGetItem/element_shape"], "attr": {"element_dtype": {"type": "DT_FLOAT"}}}, {"name": "StatefulPartitionedCall/sequential/conv_lst_m2d/while/body/_26/sequential/conv_lst_m2d/while/add_8", "op": "AddV2", "input": ["Func/StatefulPartitionedCall/sequential/conv_lst_m2d/while/body/_26/input/_139", "StatefulPartitionedCall/sequential/conv_lst_m2d/while/body/_26/sequential/conv_lst_m2d/while/add_8/y"], "attr": {"T": {"type": "DT_INT32"}}}, {"name": "StatefulPartitionedCall/sequential/conv_lst_m2d/while/body/_26/sequential/conv_lst_m2d/while/add_9", "op": "AddV2", "input": ["StatefulPartitionedCall/sequential/conv_lst_m2d/while/StatefulPartitionedCall/sequential/conv_lst_m2d/while/loop_counter_switch/_48:1", "StatefulPartitionedCall/sequential/conv_lst_m2d/while/body/_26/sequential/conv_lst_m2d/while/add_9/y"], "attr": {"T": {"type": "DT_INT32"}}}, {"name": "StatefulPartitionedCall/sequential/batch_normalization/batchnorm/add_1", "op": "AddV2", "input": ["StatefulPartitionedCall/sequential/batch_normalization/batchnorm/mul_1", "StatefulPartitionedCall/sequential/batch_normalization/batchnorm/sub"], "attr": {"T": {"type": "DT_FLOAT"}}}, {"name": "StatefulPartitionedCall/sequential/conv_lst_m2d/while/body/_26/sequential/conv_lst_m2d/while/BiasAdd_3", "op": "_FusedConv2D", "input": ["StatefulPartitionedCall/sequential/conv_lst_m2d/while/body/_26/sequential/conv_lst_m2d/while/TensorArrayV2Read/TensorListGetItem", "ConstantFolding/StatefulPartitionedCall/sequential/conv_lst_m2d/while/body/_26/sequential/conv_lst_m2d/while/split-folded-3", "ConstantFolding/StatefulPartitionedCall/sequential/conv_lst_m2d/while/body/_26/sequential/conv_lst_m2d/while/split_2-folded-3"], "device": "/device:CPU:0", "attr": {"T": {"type": "DT_FLOAT"}, "padding": {"s": "U0FNRQ=="}, "epsilon": {"f": 0.0}, "use_cudnn_on_gpu": {"b": true}, "dilations": {"list": {"i": ["1", "1", "1", "1"]}}, "data_format": {"s": "TkhXQw=="}, "num_args": {"i": "1"}, "strides": {"list": {"i": ["1", "1", "1", "1"]}}, "explicit_paddings": {"list": {}}, "fused_ops": {"list": {"s": ["Qmlhc0FkZA=="]}}}}, {"name": "StatefulPartitionedCall/sequential/conv_lst_m2d/while/body/_26/sequential/conv_lst_m2d/while/BiasAdd_1", "op": "_FusedConv2D", "input": ["StatefulPartitionedCall/sequential/conv_lst_m2d/while/body/_26/sequential/conv_lst_m2d/while/TensorArrayV2Read/TensorListGetItem", "ConstantFolding/StatefulPartitionedCall/sequential/conv_lst_m2d/while/body/_26/sequential/conv_lst_m2d/while/split-folded-1", "ConstantFolding/StatefulPartitionedCall/sequential/conv_lst_m2d/while/body/_26/sequential/conv_lst_m2d/while/split_2-folded-1"], "device": "/device:CPU:0", "attr": {"fused_ops": {"list": {"s": ["Qmlhc0FkZA=="]}}, "use_cudnn_on_gpu": {"b": true}, "T": {"type": "DT_FLOAT"}, "epsilon": {"f": 0.0}, "explicit_paddings": {"list": {}}, "dilations": {"list": {"i": ["1", "1", "1", "1"]}}, "strides": {"list": {"i": ["1", "1", "1", "1"]}}, "padding": {"s": "U0FNRQ=="}, "num_args": {"i": "1"}, "data_format": {"s": "TkhXQw=="}}}, {"name": "StatefulPartitionedCall/sequential/conv_lst_m2d/while/body/_26/sequential/conv_lst_m2d/while/BiasAdd", "op": "_FusedConv2D", "input": ["StatefulPartitionedCall/sequential/conv_lst_m2d/while/body/_26/sequential/conv_lst_m2d/while/TensorArrayV2Read/TensorListGetItem", "ConstantFolding/StatefulPartitionedCall/sequential/conv_lst_m2d/while/body/_26/sequential/conv_lst_m2d/while/split-folded-0", "ConstantFolding/StatefulPartitionedCall/sequential/conv_lst_m2d/while/body/_26/sequential/conv_lst_m2d/while/split_2-folded-0"], "device": "/device:CPU:0", "attr": {"fused_ops": {"list": {"s": ["Qmlhc0FkZA=="]}}, "use_cudnn_on_gpu": {"b": true}, "T": {"type": "DT_FLOAT"}, "epsilon": {"f": 0.0}, "explicit_paddings": {"list": {}}, "dilations": {"list": {"i": ["1", "1", "1", "1"]}}, "strides": {"list": {"i": ["1", "1", "1", "1"]}}, "padding": {"s": "U0FNRQ=="}, "num_args": {"i": "1"}, "data_format": {"s": "TkhXQw=="}}}, {"name": "StatefulPartitionedCall/sequential/conv_lst_m2d/while/body/_26/sequential/conv_lst_m2d/while/BiasAdd_2", "op": "_FusedConv2D", "input": ["StatefulPartitionedCall/sequential/conv_lst_m2d/while/body/_26/sequential/conv_lst_m2d/while/TensorArrayV2Read/TensorListGetItem", "ConstantFolding/StatefulPartitionedCall/sequential/conv_lst_m2d/while/body/_26/sequential/conv_lst_m2d/while/split-folded-2", "ConstantFolding/StatefulPartitionedCall/sequential/conv_lst_m2d/while/body/_26/sequential/conv_lst_m2d/while/split_2-folded-2"], "device": "/device:CPU:0", "attr": {"fused_ops": {"list": {"s": ["Qmlhc0FkZA=="]}}, "use_cudnn_on_gpu": {"b": true}, "T": {"type": "DT_FLOAT"}, "epsilon": {"f": 0.0}, "explicit_paddings": {"list": {}}, "dilations": {"list": {"i": ["1", "1", "1", "1"]}}, "strides": {"list": {"i": ["1", "1", "1", "1"]}}, "padding": {"s": "U0FNRQ=="}, "num_args": {"i": "1"}, "data_format": {"s": "TkhXQw=="}}}, {"name": "StatefulPartitionedCall/sequential/conv_lst_m2d/while/next_iteration/_68", "op": "NextIteration", "input": ["StatefulPartitionedCall/sequential/conv_lst_m2d/while/body/_26/sequential/conv_lst_m2d/while/add_8", "^Func/StatefulPartitionedCall/sequential/conv_lst_m2d/while/body/_26/input_control_node/_136"], "attr": {"T": {"type": "DT_INT32"}}}, {"name": "StatefulPartitionedCall/sequential/conv_lst_m2d/while/next_iteration/_66", "op": "NextIteration", "input": ["StatefulPartitionedCall/sequential/conv_lst_m2d/while/body/_26/sequential/conv_lst_m2d/while/add_9", "^Func/StatefulPartitionedCall/sequential/conv_lst_m2d/while/body/_26/input_control_node/_136"], "attr": {"T": {"type": "DT_INT32"}}}, {"name": "StatefulPartitionedCall/sequential/max_pooling3d/transpose", "op": "Transpose", "input": ["StatefulPartitionedCall/sequential/batch_normalization/batchnorm/add_1", "StatefulPartitionedCall/sequential/max_pooling3d/transpose/perm"], "attr": {"Tperm": {"type": "DT_INT32"}, "T": {"type": "DT_FLOAT"}}}, {"name": "StatefulPartitionedCall/sequential/conv_lst_m2d/while/body/_26/sequential/conv_lst_m2d/while/add_6", "op": "AddV2", "input": ["StatefulPartitionedCall/sequential/conv_lst_m2d/while/body/_26/sequential/conv_lst_m2d/while/BiasAdd_3", "StatefulPartitionedCall/sequential/conv_lst_m2d/while/body/_26/sequential/conv_lst_m2d/while/convolution_7"], "attr": {"T": {"type": "DT_FLOAT"}}}, {"name": "StatefulPartitionedCall/sequential/conv_lst_m2d/while/body/_26/sequential/conv_lst_m2d/while/add_2", "op": "AddV2", "input": ["StatefulPartitionedCall/sequential/conv_lst_m2d/while/body/_26/sequential/conv_lst_m2d/while/BiasAdd_1", "StatefulPartitionedCall/sequential/conv_lst_m2d/while/body/_26/sequential/conv_lst_m2d/while/convolution_5"], "attr": {"T": {"type": "DT_FLOAT"}}}, {"name": "StatefulPartitionedCall/sequential/conv_lst_m2d/while/body/_26/sequential/conv_lst_m2d/while/add", "op": "AddV2", "input": ["StatefulPartitionedCall/sequential/conv_lst_m2d/while/body/_26/sequential/conv_lst_m2d/while/BiasAdd", "StatefulPartitionedCall/sequential/conv_lst_m2d/while/body/_26/sequential/conv_lst_m2d/while/convolution_4"], "attr": {"T": {"type": "DT_FLOAT"}}}, {"name": "StatefulPartitionedCall/sequential/conv_lst_m2d/while/body/_26/sequential/conv_lst_m2d/while/add_4", "op": "AddV2", "input": ["StatefulPartitionedCall/sequential/conv_lst_m2d/while/body/_26/sequential/conv_lst_m2d/while/BiasAdd_2", "StatefulPartitionedCall/sequential/conv_lst_m2d/while/body/_26/sequential/conv_lst_m2d/while/convolution_6"], "attr": {"T": {"type": "DT_FLOAT"}}}, {"name": "StatefulPartitionedCall/sequential/max_pooling3d/MaxPool3D", "op": "MaxPool3D", "input": ["StatefulPartitionedCall/sequential/max_pooling3d/transpose"], "attr": {"T": {"type": "DT_FLOAT"}, "data_format": {"s": "TkRIV0M="}, "padding": {"s": "U0FNRQ=="}, "ksize": {"list": {"i": ["1", "1", "2", "2", "1"]}}, "strides": {"list": {"i": ["1", "1", "2", "2", "1"]}}}}, {"name": "StatefulPartitionedCall/sequential/conv_lst_m2d/while/body/_26/sequential/conv_lst_m2d/while/Mul_4", "op": "Mul", "input": ["StatefulPartitionedCall/sequential/conv_lst_m2d/while/body/_26/sequential/conv_lst_m2d/while/add_6", "StatefulPartitionedCall/sequential/conv_lst_m2d/while/body/_26/sequential/conv_lst_m2d/while/Const_7"], "attr": {"T": {"type": "DT_FLOAT"}}}, {"name": "StatefulPartitionedCall/sequential/conv_lst_m2d/while/body/_26/sequential/conv_lst_m2d/while/Mul_1", "op": "Mul", "input": ["StatefulPartitionedCall/sequential/conv_lst_m2d/while/body/_26/sequential/conv_lst_m2d/while/add_2", "StatefulPartitionedCall/sequential/conv_lst_m2d/while/body/_26/sequential/conv_lst_m2d/while/Const_5"], "attr": {"T": {"type": "DT_FLOAT"}}}, {"name": "StatefulPartitionedCall/sequential/conv_lst_m2d/while/body/_26/sequential/conv_lst_m2d/while/Mul", "op": "Mul", "input": ["StatefulPartitionedCall/sequential/conv_lst_m2d/while/body/_26/sequential/conv_lst_m2d/while/add", "StatefulPartitionedCall/sequential/conv_lst_m2d/while/body/_26/sequential/conv_lst_m2d/while/Const_3"], "attr": {"T": {"type": "DT_FLOAT"}}}, {"name": "StatefulPartitionedCall/sequential/conv_lst_m2d/while/body/_26/sequential/conv_lst_m2d/while/Tanh", "op": "Tanh", "input": ["StatefulPartitionedCall/sequential/conv_lst_m2d/while/body/_26/sequential/conv_lst_m2d/while/add_4"], "attr": {"T": {"type": "DT_FLOAT"}}}, {"name": "StatefulPartitionedCall/sequential/max_pooling3d/transpose_1", "op": "Transpose", "input": ["StatefulPartitionedCall/sequential/max_pooling3d/MaxPool3D", "StatefulPartitionedCall/sequential/max_pooling3d/transpose_1/perm"], "attr": {"Tperm": {"type": "DT_INT32"}, "T": {"type": "DT_FLOAT"}}}, {"name": "StatefulPartitionedCall/sequential/conv_lst_m2d/while/body/_26/sequential/conv_lst_m2d/while/Add_7", "op": "Add", "input": ["StatefulPartitionedCall/sequential/conv_lst_m2d/while/body/_26/sequential/conv_lst_m2d/while/Mul_4", "StatefulPartitionedCall/sequential/conv_lst_m2d/while/body/_26/sequential/conv_lst_m2d/while/Const_8"], "attr": {"T": {"type": "DT_FLOAT"}}}, {"name": "StatefulPartitionedCall/sequential/conv_lst_m2d/while/body/_26/sequential/conv_lst_m2d/while/Add_3", "op": "Add", "input": ["StatefulPartitionedCall/sequential/conv_lst_m2d/while/body/_26/sequential/conv_lst_m2d/while/Mul_1", "StatefulPartitionedCall/sequential/conv_lst_m2d/while/body/_26/sequential/conv_lst_m2d/while/Const_6"], "attr": {"T": {"type": "DT_FLOAT"}}}, {"name": "StatefulPartitionedCall/sequential/conv_lst_m2d/while/body/_26/sequential/conv_lst_m2d/while/Add_1", "op": "Add", "input": ["StatefulPartitionedCall/sequential/conv_lst_m2d/while/body/_26/sequential/conv_lst_m2d/while/Mul", "StatefulPartitionedCall/sequential/conv_lst_m2d/while/body/_26/sequential/conv_lst_m2d/while/Const_4"], "attr": {"T": {"type": "DT_FLOAT"}}}, {"name": "StatefulPartitionedCall/sequential/conv_lst_m2d_1/transpose", "op": "Transpose", "input": ["StatefulPartitionedCall/sequential/max_pooling3d/transpose_1", "StatefulPartitionedCall/sequential/conv_lst_m2d_1/transpose/perm"], "attr": {"T": {"type": "DT_FLOAT"}, "Tperm": {"type": "DT_INT32"}}}, {"name": "StatefulPartitionedCall/sequential/conv_lst_m2d_1/zeros_like", "op": "ZerosLike", "input": ["StatefulPartitionedCall/sequential/max_pooling3d/transpose_1"], "attr": {"T": {"type": "DT_FLOAT"}}}, {"name": "StatefulPartitionedCall/sequential/conv_lst_m2d/while/body/_26/sequential/conv_lst_m2d/while/clip_by_value_2/Minimum", "op": "Minimum", "input": ["StatefulPartitionedCall/sequential/conv_lst_m2d/while/body/_26/sequential/conv_lst_m2d/while/Add_7", "StatefulPartitionedCall/sequential/conv_lst_m2d/while/body/_26/sequential/conv_lst_m2d/while/clip_by_value_2/Minimum/y"], "attr": {"T": {"type": "DT_FLOAT"}}}, {"name": "StatefulPartitionedCall/sequential/conv_lst_m2d/while/body/_26/sequential/conv_lst_m2d/while/clip_by_value_1/Minimum", "op": "Minimum", "input": ["StatefulPartitionedCall/sequential/conv_lst_m2d/while/body/_26/sequential/conv_lst_m2d/while/Add_3", "StatefulPartitionedCall/sequential/conv_lst_m2d/while/body/_26/sequential/conv_lst_m2d/while/clip_by_value_1/Minimum/y"], "attr": {"T": {"type": "DT_FLOAT"}}}, {"name": "StatefulPartitionedCall/sequential/conv_lst_m2d/while/body/_26/sequential/conv_lst_m2d/while/clip_by_value/Minimum", "op": "Minimum", "input": ["StatefulPartitionedCall/sequential/conv_lst_m2d/while/body/_26/sequential/conv_lst_m2d/while/Add_1", "StatefulPartitionedCall/sequential/conv_lst_m2d/while/body/_26/sequential/conv_lst_m2d/while/clip_by_value/Minimum/y"], "attr": {"T": {"type": "DT_FLOAT"}}}, {"name": "StatefulPartitionedCall/sequential/conv_lst_m2d_1/TensorArrayUnstack/TensorListFromTensor", "op": "TensorListFromTensor", "input": ["StatefulPartitionedCall/sequential/conv_lst_m2d_1/transpose", "StatefulPartitionedCall/sequential/conv_lst_m2d_1/TensorArrayUnstack/TensorListFromTensor/element_shape"], "attr": {"shape_type": {"type": "DT_INT32"}, "element_dtype": {"type": "DT_FLOAT"}}}, {"name": "StatefulPartitionedCall/sequential/conv_lst_m2d_1/Shape", "op": "Shape", "input": ["StatefulPartitionedCall/sequential/conv_lst_m2d_1/transpose"], "attr": {"out_type": {"type": "DT_INT32"}, "T": {"type": "DT_FLOAT"}}}, {"name": "StatefulPartitionedCall/sequential/conv_lst_m2d_1/Sum", "op": "Sum", "input": ["StatefulPartitionedCall/sequential/conv_lst_m2d_1/zeros_like", "StatefulPartitionedCall/sequential/conv_lst_m2d_1/Sum/reduction_indices"], "attr": {"Tidx": {"type": "DT_INT32"}, "T": {"type": "DT_FLOAT"}, "keep_dims": {"b": false}}}, {"name": "StatefulPartitionedCall/sequential/conv_lst_m2d/while/body/_26/sequential/conv_lst_m2d/while/clip_by_value_2", "op": "Maximum", "input": ["StatefulPartitionedCall/sequential/conv_lst_m2d/while/body/_26/sequential/conv_lst_m2d/while/clip_by_value_2/Minimum", "StatefulPartitionedCall/sequential/conv_lst_m2d/while/body/_26/sequential/conv_lst_m2d/while/clip_by_value_2/y"], "attr": {"T": {"type": "DT_FLOAT"}}}, {"name": "StatefulPartitionedCall/sequential/conv_lst_m2d/while/body/_26/sequential/conv_lst_m2d/while/clip_by_value_1", "op": "Maximum", "input": ["StatefulPartitionedCall/sequential/conv_lst_m2d/while/body/_26/sequential/conv_lst_m2d/while/clip_by_value_1/Minimum", "StatefulPartitionedCall/sequential/conv_lst_m2d/while/body/_26/sequential/conv_lst_m2d/while/clip_by_value_1/y"], "attr": {"T": {"type": "DT_FLOAT"}}}, {"name": "StatefulPartitionedCall/sequential/conv_lst_m2d/while/body/_26/sequential/conv_lst_m2d/while/clip_by_value", "op": "Maximum", "input": ["StatefulPartitionedCall/sequential/conv_lst_m2d/while/body/_26/sequential/conv_lst_m2d/while/clip_by_value/Minimum", "StatefulPartitionedCall/sequential/conv_lst_m2d/while/body/_26/sequential/conv_lst_m2d/while/clip_by_value/y"], "attr": {"T": {"type": "DT_FLOAT"}}}, {"name": "StatefulPartitionedCall/sequential/conv_lst_m2d_1/strided_slice", "op": "StridedSlice", "input": ["StatefulPartitionedCall/sequential/conv_lst_m2d_1/Shape", "StatefulPartitionedCall/sequential/conv_lst_m2d_1/strided_slice/stack", "StatefulPartitionedCall/sequential/conv_lst_m2d_1/strided_slice/stack_1", "StatefulPartitionedCall/sequential/conv_lst_m2d_1/strided_slice/stack_2"], "attr": {"ellipsis_mask": {"i": "0"}, "shrink_axis_mask": {"i": "1"}, "Index": {"type": "DT_INT32"}, "new_axis_mask": {"i": "0"}, "T": {"type": "DT_INT32"}, "end_mask": {"i": "0"}, "begin_mask": {"i": "0"}}}, {"name": "StatefulPartitionedCall/sequential/conv_lst_m2d_1/convolution", "op": "Conv2D", "input": ["StatefulPartitionedCall/sequential/conv_lst_m2d_1/Sum", "StatefulPartitionedCall/sequential/conv_lst_m2d_1/zeros"], "device": "/device:CPU:0", "attr": {"data_format": {"s": "TkhXQw=="}, "explicit_paddings": {"list": {}}, "T": {"type": "DT_FLOAT"}, "dilations": {"list": {"i": ["1", "1", "1", "1"]}}, "strides": {"list": {"i": ["1", "1", "1", "1"]}}, "padding": {"s": "U0FNRQ=="}, "use_cudnn_on_gpu": {"b": true}}}, {"name": "StatefulPartitionedCall/sequential/conv_lst_m2d/while/body/_26/sequential/conv_lst_m2d/while/mul_2", "op": "Mul", "input": ["StatefulPartitionedCall/sequential/conv_lst_m2d/while/body/_26/sequential/conv_lst_m2d/while/clip_by_value_1", "StatefulPartitionedCall/sequential/conv_lst_m2d/while/StatefulPartitionedCall/sequential/conv_lst_m2d/convolution_switch/_53:1"], "attr": {"T": {"type": "DT_FLOAT"}}}, {"name": "StatefulPartitionedCall/sequential/conv_lst_m2d/while/body/_26/sequential/conv_lst_m2d/while/mul_3", "op": "Mul", "input": ["StatefulPartitionedCall/sequential/conv_lst_m2d/while/body/_26/sequential/conv_lst_m2d/while/clip_by_value", "StatefulPartitionedCall/sequential/conv_lst_m2d/while/body/_26/sequential/conv_lst_m2d/while/Tanh"], "attr": {"T": {"type": "DT_FLOAT"}}}, {"name": "StatefulPartitionedCall/sequential/conv_lst_m2d_1/TensorArrayV2_1", "op": "TensorListReserve", "input": ["StatefulPartitionedCall/sequential/conv_lst_m2d_1/TensorArrayV2_1/element_shape", "StatefulPartitionedCall/sequential/conv_lst_m2d_1/strided_slice"], "attr": {"shape_type": {"type": "DT_INT32"}, "element_dtype": {"type": "DT_FLOAT"}}}, {"name": "StatefulPartitionedCall/sequential/conv_lst_m2d/while/body/_26/sequential/conv_lst_m2d/while/add_5", "op": "AddV2", "input": ["StatefulPartitionedCall/sequential/conv_lst_m2d/while/body/_26/sequential/conv_lst_m2d/while/mul_2", "StatefulPartitionedCall/sequential/conv_lst_m2d/while/body/_26/sequential/conv_lst_m2d/while/mul_3"], "attr": {"T": {"type": "DT_FLOAT"}}}, {"name": "StatefulPartitionedCall/sequential/conv_lst_m2d_1/while/LoopControlInputs/_87", "op": "NoOp", "input": ["^StatefulPartitionedCall/sequential/conv_lst_m2d_1/TensorArrayUnstack/TensorListFromTensor", "^StatefulPartitionedCall/sequential/conv_lst_m2d_1/TensorArrayV2_1", "^StatefulPartitionedCall/sequential/conv_lst_m2d_1/convolution"]}, {"name": "StatefulPartitionedCall/sequential/conv_lst_m2d/while/body/_26/sequential/conv_lst_m2d/while/Tanh_1", "op": "Tanh", "input": ["StatefulPartitionedCall/sequential/conv_lst_m2d/while/body/_26/sequential/conv_lst_m2d/while/add_5"], "attr": {"T": {"type": "DT_FLOAT"}}}, {"name": "StatefulPartitionedCall/sequential/conv_lst_m2d/while/next_iteration/_71", "op": "NextIteration", "input": ["StatefulPartitionedCall/sequential/conv_lst_m2d/while/body/_26/sequential/conv_lst_m2d/while/add_5", "^Func/StatefulPartitionedCall/sequential/conv_lst_m2d/while/body/_26/input_control_node/_136"], "attr": {"T": {"type": "DT_FLOAT"}}}, {"name": "StatefulPartitionedCall/sequential/conv_lst_m2d_1/while/enter/_82", "op": "Enter", "input": ["StatefulPartitionedCall/sequential/conv_lst_m2d_1/strided_slice", "^StatefulPartitionedCall/sequential/conv_lst_m2d_1/while/LoopControlInputs/_87"], "attr": {"is_constant": {"b": false}, "frame_name": {"s": "U3RhdGVmdWxQYXJ0aXRpb25lZENhbGwvc2VxdWVudGlhbC9jb252X2xzdF9tMmRfMS93aGlsZQ=="}, "T": {"type": "DT_INT32"}, "parallel_iterations": {"i": "32"}}}, {"name": "StatefulPartitionedCall/sequential/conv_lst_m2d_1/while/enter/_81", "op": "Enter", "input": ["StatefulPartitionedCall/sequential/conv_lst_m2d_1/convolution", "^StatefulPartitionedCall/sequential/conv_lst_m2d_1/while/LoopControlInputs/_87"], "attr": {"is_constant": {"b": false}, "frame_name": {"s": "U3RhdGVmdWxQYXJ0aXRpb25lZENhbGwvc2VxdWVudGlhbC9jb252X2xzdF9tMmRfMS93aGlsZQ=="}, "T": {"type": "DT_FLOAT"}, "parallel_iterations": {"i": "32"}}}, {"name": "StatefulPartitionedCall/sequential/conv_lst_m2d_1/while/enter/_79", "op": "Enter", "input": ["StatefulPartitionedCall/sequential/conv_lst_m2d_1/TensorArrayV2_1", "^StatefulPartitionedCall/sequential/conv_lst_m2d_1/while/LoopControlInputs/_87"], "attr": {"is_constant": {"b": false}, "frame_name": {"s": "U3RhdGVmdWxQYXJ0aXRpb25lZENhbGwvc2VxdWVudGlhbC9jb252X2xzdF9tMmRfMS93aGlsZQ=="}, "T": {"type": "DT_VARIANT"}, "parallel_iterations": {"i": "32"}}}, {"name": "StatefulPartitionedCall/sequential/conv_lst_m2d_1/while/enter/_80", "op": "Enter", "input": ["StatefulPartitionedCall/sequential/conv_lst_m2d_1/convolution", "^StatefulPartitionedCall/sequential/conv_lst_m2d_1/while/LoopControlInputs/_87"], "attr": {"parallel_iterations": {"i": "32"}, "is_constant": {"b": false}, "frame_name": {"s": "U3RhdGVmdWxQYXJ0aXRpb25lZENhbGwvc2VxdWVudGlhbC9jb252X2xzdF9tMmRfMS93aGlsZQ=="}, "T": {"type": "DT_FLOAT"}}}, {"name": "StatefulPartitionedCall/sequential/conv_lst_m2d_1/while/enter/_83", "op": "Enter", "input": ["StatefulPartitionedCall/sequential/conv_lst_m2d_1/TensorArrayUnstack/TensorListFromTensor", "^StatefulPartitionedCall/sequential/conv_lst_m2d_1/while/LoopControlInputs/_87"], "attr": {"is_constant": {"b": false}, "frame_name": {"s": "U3RhdGVmdWxQYXJ0aXRpb25lZENhbGwvc2VxdWVudGlhbC9jb252X2xzdF9tMmRfMS93aGlsZQ=="}, "T": {"type": "DT_VARIANT"}, "parallel_iterations": {"i": "32"}}}, {"name": "StatefulPartitionedCall/sequential/conv_lst_m2d_1/while/enter/_78", "op": "Enter", "input": ["StatefulPartitionedCall/sequential/conv_lst_m2d_1/time", "^StatefulPartitionedCall/sequential/conv_lst_m2d_1/while/LoopControlInputs/_87"], "attr": {"parallel_iterations": {"i": "32"}, "is_constant": {"b": false}, "frame_name": {"s": "U3RhdGVmdWxQYXJ0aXRpb25lZENhbGwvc2VxdWVudGlhbC9jb252X2xzdF9tMmRfMS93aGlsZQ=="}, "T": {"type": "DT_INT32"}}}, {"name": "StatefulPartitionedCall/sequential/conv_lst_m2d_1/while/enter/_76", "op": "Enter", "input": ["StatefulPartitionedCall/sequential/conv_lst_m2d_1/while/loop_counter", "^StatefulPartitionedCall/sequential/conv_lst_m2d_1/while/LoopControlInputs/_87"], "attr": {"parallel_iterations": {"i": "32"}, "T": {"type": "DT_INT32"}, "frame_name": {"s": "U3RhdGVmdWxQYXJ0aXRpb25lZENhbGwvc2VxdWVudGlhbC9jb252X2xzdF9tMmRfMS93aGlsZQ=="}, "is_constant": {"b": false}}}, {"name": "StatefulPartitionedCall/sequential/conv_lst_m2d_1/while/enter/_77", "op": "Enter", "input": ["StatefulPartitionedCall/sequential/conv_lst_m2d_1/while/maximum_iterations", "^StatefulPartitionedCall/sequential/conv_lst_m2d_1/while/LoopControlInputs/_87"], "attr": {"parallel_iterations": {"i": "32"}, "is_constant": {"b": false}, "frame_name": {"s": "U3RhdGVmdWxQYXJ0aXRpb25lZENhbGwvc2VxdWVudGlhbC9jb252X2xzdF9tMmRfMS93aGlsZQ=="}, "T": {"type": "DT_INT32"}}}, {"name": "StatefulPartitionedCall/sequential/conv_lst_m2d_1/while/enter/_84", "op": "Enter", "input": ["Func/StatefulPartitionedCall/input/_8", "^StatefulPartitionedCall/sequential/conv_lst_m2d_1/while/LoopControlInputs/_87"], "attr": {"parallel_iterations": {"i": "32"}, "is_constant": {"b": true}, "frame_name": {"s": "U3RhdGVmdWxQYXJ0aXRpb25lZENhbGwvc2VxdWVudGlhbC9jb252X2xzdF9tMmRfMS93aGlsZQ=="}, "T": {"type": "DT_FLOAT"}}}, {"name": "StatefulPartitionedCall/sequential/conv_lst_m2d_1/while/enter/_85", "op": "Enter", "input": ["Func/StatefulPartitionedCall/input/_9", "^StatefulPartitionedCall/sequential/conv_lst_m2d_1/while/LoopControlInputs/_87"], "attr": {"parallel_iterations": {"i": "32"}, "is_constant": {"b": true}, "frame_name": {"s": "U3RhdGVmdWxQYXJ0aXRpb25lZENhbGwvc2VxdWVudGlhbC9jb252X2xzdF9tMmRfMS93aGlsZQ=="}, "T": {"type": "DT_FLOAT"}}}, {"name": "StatefulPartitionedCall/sequential/conv_lst_m2d_1/while/enter/_86", "op": "Enter", "input": ["Func/StatefulPartitionedCall/input/_10", "^StatefulPartitionedCall/sequential/conv_lst_m2d_1/while/LoopControlInputs/_87"], "attr": {"frame_name": {"s": "U3RhdGVmdWxQYXJ0aXRpb25lZENhbGwvc2VxdWVudGlhbC9jb252X2xzdF9tMmRfMS93aGlsZQ=="}, "parallel_iterations": {"i": "32"}, "is_constant": {"b": true}, "T": {"type": "DT_FLOAT"}}}, {"name": "StatefulPartitionedCall/sequential/conv_lst_m2d/while/body/_26/sequential/conv_lst_m2d/while/mul_5", "op": "Mul", "input": ["StatefulPartitionedCall/sequential/conv_lst_m2d/while/body/_26/sequential/conv_lst_m2d/while/clip_by_value_2", "StatefulPartitionedCall/sequential/conv_lst_m2d/while/body/_26/sequential/conv_lst_m2d/while/Tanh_1"], "attr": {"T": {"type": "DT_FLOAT"}}}, {"name": "StatefulPartitionedCall/sequential/conv_lst_m2d_1/while/merge/_94", "op": "Merge", "input": ["StatefulPartitionedCall/sequential/conv_lst_m2d_1/while/enter/_82", "StatefulPartitionedCall/sequential/conv_lst_m2d_1/while/next_iteration/_121"], "attr": {"N": {"i": "2"}, "T": {"type": "DT_INT32"}}}, {"name": "StatefulPartitionedCall/sequential/conv_lst_m2d_1/while/merge/_93", "op": "Merge", "input": ["StatefulPartitionedCall/sequential/conv_lst_m2d_1/while/enter/_81", "StatefulPartitionedCall/sequential/conv_lst_m2d_1/while/next_iteration/_120"], "attr": {"N": {"i": "2"}, "T": {"type": "DT_FLOAT"}}}, {"name": "StatefulPartitionedCall/sequential/conv_lst_m2d_1/while/merge/_91", "op": "Merge", "input": ["StatefulPartitionedCall/sequential/conv_lst_m2d_1/while/enter/_79", "StatefulPartitionedCall/sequential/conv_lst_m2d_1/while/next_iteration/_118"], "attr": {"T": {"type": "DT_VARIANT"}, "N": {"i": "2"}}}, {"name": "StatefulPartitionedCall/sequential/conv_lst_m2d_1/while/merge/_92", "op": "Merge", "input": ["StatefulPartitionedCall/sequential/conv_lst_m2d_1/while/enter/_80", "StatefulPartitionedCall/sequential/conv_lst_m2d_1/while/next_iteration/_119"], "attr": {"N": {"i": "2"}, "T": {"type": "DT_FLOAT"}}}, {"name": "StatefulPartitionedCall/sequential/conv_lst_m2d_1/while/merge/_95", "op": "Merge", "input": ["StatefulPartitionedCall/sequential/conv_lst_m2d_1/while/enter/_83", "StatefulPartitionedCall/sequential/conv_lst_m2d_1/while/next_iteration/_122"], "attr": {"N": {"i": "2"}, "T": {"type": "DT_VARIANT"}}}, {"name": "StatefulPartitionedCall/sequential/conv_lst_m2d_1/while/merge/_90", "op": "Merge", "input": ["StatefulPartitionedCall/sequential/conv_lst_m2d_1/while/enter/_78", "StatefulPartitionedCall/sequential/conv_lst_m2d_1/while/next_iteration/_117"], "attr": {"T": {"type": "DT_INT32"}, "N": {"i": "2"}}}, {"name": "StatefulPartitionedCall/sequential/conv_lst_m2d_1/while/merge/_88", "op": "Merge", "input": ["StatefulPartitionedCall/sequential/conv_lst_m2d_1/while/enter/_76", "StatefulPartitionedCall/sequential/conv_lst_m2d_1/while/next_iteration/_115"], "attr": {"N": {"i": "2"}, "T": {"type": "DT_INT32"}}}, {"name": "StatefulPartitionedCall/sequential/conv_lst_m2d_1/while/merge/_89", "op": "Merge", "input": ["StatefulPartitionedCall/sequential/conv_lst_m2d_1/while/enter/_77", "StatefulPartitionedCall/sequential/conv_lst_m2d_1/while/next_iteration/_116"], "attr": {"N": {"i": "2"}, "T": {"type": "DT_INT32"}}}, {"name": "StatefulPartitionedCall/sequential/conv_lst_m2d/while/body/_26/sequential/conv_lst_m2d/while/TensorArrayV2Write/TensorListSetItem", "op": "TensorListSetItem", "input": ["StatefulPartitionedCall/sequential/conv_lst_m2d/while/StatefulPartitionedCall/sequential/conv_lst_m2d/TensorArrayV2_1_switch/_51:1", "Func/StatefulPartitionedCall/sequential/conv_lst_m2d/while/body/_26/input/_139", "StatefulPartitionedCall/sequential/conv_lst_m2d/while/body/_26/sequential/conv_lst_m2d/while/mul_5"], "attr": {"element_dtype": {"type": "DT_FLOAT"}}}, {"name": "StatefulPartitionedCall/sequential/conv_lst_m2d/while/next_iteration/_70", "op": "NextIteration", "input": ["StatefulPartitionedCall/sequential/conv_lst_m2d/while/body/_26/sequential/conv_lst_m2d/while/mul_5", "^Func/StatefulPartitionedCall/sequential/conv_lst_m2d/while/body/_26/input_control_node/_136"], "attr": {"T": {"type": "DT_FLOAT"}}}, {"name": "StatefulPartitionedCall/sequential/conv_lst_m2d_1/while/cond/_74/sequential/conv_lst_m2d_1/while/Less", "op": "Less", "input": ["StatefulPartitionedCall/sequential/conv_lst_m2d_1/while/merge/_90", "StatefulPartitionedCall/sequential/conv_lst_m2d_1/while/merge/_94", "^StatefulPartitionedCall/sequential/conv_lst_m2d_1/while/merge/_95", "^StatefulPartitionedCall/sequential/conv_lst_m2d_1/while/enter/_84", "^StatefulPartitionedCall/sequential/conv_lst_m2d_1/while/enter/_85", "^StatefulPartitionedCall/sequential/conv_lst_m2d_1/while/enter/_86", "^StatefulPartitionedCall/sequential/conv_lst_m2d_1/while/merge/_88", "^StatefulPartitionedCall/sequential/conv_lst_m2d_1/while/merge/_89", "^StatefulPartitionedCall/sequential/conv_lst_m2d_1/while/merge/_91", "^StatefulPartitionedCall/sequential/conv_lst_m2d_1/while/merge/_92", "^StatefulPartitionedCall/sequential/conv_lst_m2d_1/while/merge/_93"], "attr": {"T": {"type": "DT_INT32"}}}, {"name": "StatefulPartitionedCall/sequential/conv_lst_m2d/while/next_iteration/_69", "op": "NextIteration", "input": ["StatefulPartitionedCall/sequential/conv_lst_m2d/while/body/_26/sequential/conv_lst_m2d/while/TensorArrayV2Write/TensorListSetItem", "^Func/StatefulPartitionedCall/sequential/conv_lst_m2d/while/body/_26/input_control_node/_136"], "attr": {"T": {"type": "DT_VARIANT"}}}, {"name": "StatefulPartitionedCall/sequential/conv_lst_m2d_1/while/LoopCond/_96", "op": "LoopCond", "input": ["StatefulPartitionedCall/sequential/conv_lst_m2d_1/while/cond/_74/sequential/conv_lst_m2d_1/while/Less"]}, {"name": "StatefulPartitionedCall/sequential/conv_lst_m2d_1/while/StatefulPartitionedCall/sequential/conv_lst_m2d_1/TensorArrayV2_1_switch/_100", "op": "Switch", "input": ["StatefulPartitionedCall/sequential/conv_lst_m2d_1/while/merge/_91", "StatefulPartitionedCall/sequential/conv_lst_m2d_1/while/LoopCond/_96"], "attr": {"T": {"type": "DT_VARIANT"}}}, {"name": "StatefulPartitionedCall/sequential/conv_lst_m2d_1/while/StatefulPartitionedCall/sequential/conv_lst_m2d_1/TensorArrayUnstack/TensorListFromTensor_switch/_104", "op": "Switch", "input": ["StatefulPartitionedCall/sequential/conv_lst_m2d_1/while/merge/_95", "StatefulPartitionedCall/sequential/conv_lst_m2d_1/while/LoopCond/_96"], "attr": {"T": {"type": "DT_VARIANT"}}}, {"name": "StatefulPartitionedCall/sequential/conv_lst_m2d_1/while/StatefulPartitionedCall/sequential/conv_lst_m2d_1/convolution_switch/_101", "op": "Switch", "input": ["StatefulPartitionedCall/sequential/conv_lst_m2d_1/while/merge/_92", "StatefulPartitionedCall/sequential/conv_lst_m2d_1/while/LoopCond/_96"], "attr": {"T": {"type": "DT_FLOAT"}}}, {"name": "StatefulPartitionedCall/sequential/conv_lst_m2d_1/while/StatefulPartitionedCall/sequential/conv_lst_m2d_1/convolution_switch/_102", "op": "Switch", "input": ["StatefulPartitionedCall/sequential/conv_lst_m2d_1/while/merge/_93", "StatefulPartitionedCall/sequential/conv_lst_m2d_1/while/LoopCond/_96"], "attr": {"T": {"type": "DT_FLOAT"}}}, {"name": "StatefulPartitionedCall/sequential/conv_lst_m2d_1/while/StatefulPartitionedCall/sequential/conv_lst_m2d_1/time_switch/_99", "op": "Switch", "input": ["StatefulPartitionedCall/sequential/conv_lst_m2d_1/while/merge/_90", "StatefulPartitionedCall/sequential/conv_lst_m2d_1/while/LoopCond/_96"], "attr": {"T": {"type": "DT_INT32"}}}, {"name": "StatefulPartitionedCall/sequential/conv_lst_m2d_1/while/StatefulPartitionedCall/sequential/conv_lst_m2d_1/while/loop_counter_switch/_97", "op": "Switch", "input": ["StatefulPartitionedCall/sequential/conv_lst_m2d_1/while/merge/_88", "StatefulPartitionedCall/sequential/conv_lst_m2d_1/while/LoopCond/_96"], "attr": {"T": {"type": "DT_INT32"}}}, {"name": "StatefulPartitionedCall/sequential/conv_lst_m2d_1/while/StatefulPartitionedCall/sequential/conv_lst_m2d_1/while/maximum_iterations_switch/_98", "op": "Switch", "input": ["StatefulPartitionedCall/sequential/conv_lst_m2d_1/while/merge/_89", "StatefulPartitionedCall/sequential/conv_lst_m2d_1/while/LoopCond/_96"], "attr": {"T": {"type": "DT_INT32"}}}, {"name": "StatefulPartitionedCall/sequential/conv_lst_m2d_1/while/StatefulPartitionedCall/sequential/conv_lst_m2d_1/strided_slice_switch/_103", "op": "Switch", "input": ["StatefulPartitionedCall/sequential/conv_lst_m2d_1/while/merge/_94", "StatefulPartitionedCall/sequential/conv_lst_m2d_1/while/LoopCond/_96"], "attr": {"T": {"type": "DT_INT32"}}}, {"name": "StatefulPartitionedCall/sequential/conv_lst_m2d_1/while/exit/_109", "op": "Exit", "input": ["StatefulPartitionedCall/sequential/conv_lst_m2d_1/while/StatefulPartitionedCall/sequential/conv_lst_m2d_1/TensorArrayV2_1_switch/_100"], "attr": {"T": {"type": "DT_VARIANT"}}}, {"name": "StatefulPartitionedCall/sequential/conv_lst_m2d_1/while/exit/_113", "op": "Exit", "input": ["StatefulPartitionedCall/sequential/conv_lst_m2d_1/while/StatefulPartitionedCall/sequential/conv_lst_m2d_1/TensorArrayUnstack/TensorListFromTensor_switch/_104"], "attr": {"T": {"type": "DT_VARIANT"}}}, {"name": "StatefulPartitionedCall/sequential/conv_lst_m2d_1/while/exit/_110", "op": "Exit", "input": ["StatefulPartitionedCall/sequential/conv_lst_m2d_1/while/StatefulPartitionedCall/sequential/conv_lst_m2d_1/convolution_switch/_101"], "attr": {"T": {"type": "DT_FLOAT"}}}, {"name": "StatefulPartitionedCall/sequential/conv_lst_m2d_1/while/exit/_111", "op": "Exit", "input": ["StatefulPartitionedCall/sequential/conv_lst_m2d_1/while/StatefulPartitionedCall/sequential/conv_lst_m2d_1/convolution_switch/_102"], "attr": {"T": {"type": "DT_FLOAT"}}}, {"name": "StatefulPartitionedCall/sequential/conv_lst_m2d_1/while/exit/_108", "op": "Exit", "input": ["StatefulPartitionedCall/sequential/conv_lst_m2d_1/while/StatefulPartitionedCall/sequential/conv_lst_m2d_1/time_switch/_99"], "attr": {"T": {"type": "DT_INT32"}}}, {"name": "StatefulPartitionedCall/sequential/conv_lst_m2d_1/while/exit/_106", "op": "Exit", "input": ["StatefulPartitionedCall/sequential/conv_lst_m2d_1/while/StatefulPartitionedCall/sequential/conv_lst_m2d_1/while/loop_counter_switch/_97"], "attr": {"T": {"type": "DT_INT32"}}}, {"name": "StatefulPartitionedCall/sequential/conv_lst_m2d_1/while/loop_body_control/_105", "op": "Identity", "input": ["StatefulPartitionedCall/sequential/conv_lst_m2d_1/while/StatefulPartitionedCall/sequential/conv_lst_m2d_1/while/loop_counter_switch/_97:1"], "attr": {"T": {"type": "DT_INT32"}}}, {"name": "StatefulPartitionedCall/sequential/conv_lst_m2d_1/while/exit/_107", "op": "Exit", "input": ["StatefulPartitionedCall/sequential/conv_lst_m2d_1/while/StatefulPartitionedCall/sequential/conv_lst_m2d_1/while/maximum_iterations_switch/_98"], "attr": {"T": {"type": "DT_INT32"}}}, {"name": "StatefulPartitionedCall/sequential/conv_lst_m2d_1/while/exit/_112", "op": "Exit", "input": ["StatefulPartitionedCall/sequential/conv_lst_m2d_1/while/StatefulPartitionedCall/sequential/conv_lst_m2d_1/strided_slice_switch/_103"], "attr": {"T": {"type": "DT_INT32"}}}, {"name": "StatefulPartitionedCall/sequential/conv_lst_m2d_1/TensorArrayV2Stack/TensorListStack", "op": "TensorListStack", "input": ["StatefulPartitionedCall/sequential/conv_lst_m2d_1/while/exit/_109", "StatefulPartitionedCall/sequential/conv_lst_m2d_1/TensorArrayV2Stack/TensorListStack/element_shape"], "attr": {"num_elements": {"i": "-1"}, "element_dtype": {"type": "DT_FLOAT"}}}, {"name": "Func/StatefulPartitionedCall/sequential/conv_lst_m2d_1/while/body/_75/input_control_node/_173", "op": "NoOp", "input": ["^StatefulPartitionedCall/sequential/conv_lst_m2d_1/while/StatefulPartitionedCall/sequential/conv_lst_m2d_1/TensorArrayUnstack/TensorListFromTensor_switch/_104", "^StatefulPartitionedCall/sequential/conv_lst_m2d_1/while/StatefulPartitionedCall/sequential/conv_lst_m2d_1/TensorArrayV2_1_switch/_100", "^StatefulPartitionedCall/sequential/conv_lst_m2d_1/while/StatefulPartitionedCall/sequential/conv_lst_m2d_1/convolution_switch/_101", "^StatefulPartitionedCall/sequential/conv_lst_m2d_1/while/StatefulPartitionedCall/sequential/conv_lst_m2d_1/convolution_switch/_102", "^StatefulPartitionedCall/sequential/conv_lst_m2d_1/while/StatefulPartitionedCall/sequential/conv_lst_m2d_1/strided_slice_switch/_103", "^StatefulPartitionedCall/sequential/conv_lst_m2d_1/while/StatefulPartitionedCall/sequential/conv_lst_m2d_1/time_switch/_99", "^StatefulPartitionedCall/sequential/conv_lst_m2d_1/while/loop_body_control/_105", "^StatefulPartitionedCall/sequential/conv_lst_m2d_1/while/StatefulPartitionedCall/sequential/conv_lst_m2d_1/while/maximum_iterations_switch/_98", "^StatefulPartitionedCall/sequential/conv_lst_m2d_1/while/enter/_84", "^StatefulPartitionedCall/sequential/conv_lst_m2d_1/while/enter/_85", "^StatefulPartitionedCall/sequential/conv_lst_m2d_1/while/enter/_86"]}, {"name": "StatefulPartitionedCall/sequential/conv_lst_m2d_1/transpose_1", "op": "Transpose", "input": ["StatefulPartitionedCall/sequential/conv_lst_m2d_1/TensorArrayV2Stack/TensorListStack", "StatefulPartitionedCall/sequential/conv_lst_m2d_1/transpose_1/perm"], "attr": {"T": {"type": "DT_FLOAT"}, "Tperm": {"type": "DT_INT32"}}}, {"name": "StatefulPartitionedCall/sequential/conv_lst_m2d_1/while/next_iteration/_121", "op": "NextIteration", "input": ["StatefulPartitionedCall/sequential/conv_lst_m2d_1/while/StatefulPartitionedCall/sequential/conv_lst_m2d_1/strided_slice_switch/_103:1", "^Func/StatefulPartitionedCall/sequential/conv_lst_m2d_1/while/body/_75/input_control_node/_173"], "attr": {"T": {"type": "DT_INT32"}}}, {"name": "ConstantFolding/StatefulPartitionedCall/sequential/conv_lst_m2d_1/while/body/_75/sequential/conv_lst_m2d_1/while/split-folded-3", "op": "Const", "input": ["^Func/StatefulPartitionedCall/sequential/conv_lst_m2d_1/while/body/_75/input_control_node/_173", "^StatefulPartitionedCall/sequential/conv_lst_m2d_1/while/enter/_84"], "attr": {"dtype": {"type": "DT_FLOAT"}, "value": {"tensor": {"dtype": "DT_FLOAT", "tensorShape": {"dim": [{"size": "3"}, {"size": "3"}, {"size": "20"}, {"size": "40"}]}}}}}, {"name": "ConstantFolding/StatefulPartitionedCall/sequential/conv_lst_m2d_1/while/body/_75/sequential/conv_lst_m2d_1/while/split_1-folded-3", "op": "Const", "input": ["^Func/StatefulPartitionedCall/sequential/conv_lst_m2d_1/while/body/_75/input_control_node/_173", "^StatefulPartitionedCall/sequential/conv_lst_m2d_1/while/enter/_85"], "attr": {"dtype": {"type": "DT_FLOAT"}, "value": {"tensor": {"dtype": "DT_FLOAT", "tensorShape": {"dim": [{"size": "3"}, {"size": "3"}, {"size": "40"}, {"size": "40"}]}}}}}, {"name": "StatefulPartitionedCall/sequential/conv_lst_m2d_1/while/body/_75/sequential/conv_lst_m2d_1/while/Const_7", "op": "Const", "input": ["^Func/StatefulPartitionedCall/sequential/conv_lst_m2d_1/while/body/_75/input_control_node/_173"], "attr": {"dtype": {"type": "DT_FLOAT"}, "value": {"tensor": {"dtype": "DT_FLOAT", "tensorShape": {}}}}}, {"name": "StatefulPartitionedCall/sequential/conv_lst_m2d_1/while/body/_75/sequential/conv_lst_m2d_1/while/Const_8", "op": "Const", "input": ["^Func/StatefulPartitionedCall/sequential/conv_lst_m2d_1/while/body/_75/input_control_node/_173"], "attr": {"value": {"tensor": {"dtype": "DT_FLOAT", "tensorShape": {}}}, "dtype": {"type": "DT_FLOAT"}}}, {"name": "StatefulPartitionedCall/sequential/conv_lst_m2d_1/while/body/_75/sequential/conv_lst_m2d_1/while/clip_by_value_2/Minimum/y", "op": "Const", "input": ["^Func/StatefulPartitionedCall/sequential/conv_lst_m2d_1/while/body/_75/input_control_node/_173"], "attr": {"value": {"tensor": {"dtype": "DT_FLOAT", "tensorShape": {}}}, "dtype": {"type": "DT_FLOAT"}}}, {"name": "StatefulPartitionedCall/sequential/conv_lst_m2d_1/while/body/_75/sequential/conv_lst_m2d_1/while/clip_by_value_2/y", "op": "Const", "input": ["^Func/StatefulPartitionedCall/sequential/conv_lst_m2d_1/while/body/_75/input_control_node/_173"], "attr": {"dtype": {"type": "DT_FLOAT"}, "value": {"tensor": {"dtype": "DT_FLOAT", "tensorShape": {}}}}}, {"name": "ConstantFolding/StatefulPartitionedCall/sequential/conv_lst_m2d_1/while/body/_75/sequential/conv_lst_m2d_1/while/split-folded-1", "op": "Const", "input": ["^Func/StatefulPartitionedCall/sequential/conv_lst_m2d_1/while/body/_75/input_control_node/_173", "^StatefulPartitionedCall/sequential/conv_lst_m2d_1/while/enter/_84"], "attr": {"dtype": {"type": "DT_FLOAT"}, "value": {"tensor": {"dtype": "DT_FLOAT", "tensorShape": {"dim": [{"size": "3"}, {"size": "3"}, {"size": "20"}, {"size": "40"}]}}}}}, {"name": "ConstantFolding/StatefulPartitionedCall/sequential/conv_lst_m2d_1/while/body/_75/sequential/conv_lst_m2d_1/while/split_1-folded-1", "op": "Const", "input": ["^Func/StatefulPartitionedCall/sequential/conv_lst_m2d_1/while/body/_75/input_control_node/_173", "^StatefulPartitionedCall/sequential/conv_lst_m2d_1/while/enter/_85"], "attr": {"value": {"tensor": {"dtype": "DT_FLOAT", "tensorShape": {"dim": [{"size": "3"}, {"size": "3"}, {"size": "40"}, {"size": "40"}]}}}, "dtype": {"type": "DT_FLOAT"}}}, {"name": "StatefulPartitionedCall/sequential/conv_lst_m2d_1/while/body/_75/sequential/conv_lst_m2d_1/while/Const_5", "op": "Const", "input": ["^Func/StatefulPartitionedCall/sequential/conv_lst_m2d_1/while/body/_75/input_control_node/_173"], "attr": {"value": {"tensor": {"dtype": "DT_FLOAT", "tensorShape": {}}}, "dtype": {"type": "DT_FLOAT"}}}, {"name": "StatefulPartitionedCall/sequential/conv_lst_m2d_1/while/body/_75/sequential/conv_lst_m2d_1/while/Const_6", "op": "Const", "input": ["^Func/StatefulPartitionedCall/sequential/conv_lst_m2d_1/while/body/_75/input_control_node/_173"], "attr": {"dtype": {"type": "DT_FLOAT"}, "value": {"tensor": {"dtype": "DT_FLOAT", "tensorShape": {}}}}}, {"name": "StatefulPartitionedCall/sequential/conv_lst_m2d_1/while/body/_75/sequential/conv_lst_m2d_1/while/clip_by_value_1/Minimum/y", "op": "Const", "input": ["^Func/StatefulPartitionedCall/sequential/conv_lst_m2d_1/while/body/_75/input_control_node/_173"], "attr": {"dtype": {"type": "DT_FLOAT"}, "value": {"tensor": {"dtype": "DT_FLOAT", "tensorShape": {}}}}}, {"name": "StatefulPartitionedCall/sequential/conv_lst_m2d_1/while/body/_75/sequential/conv_lst_m2d_1/while/clip_by_value_1/y", "op": "Const", "input": ["^Func/StatefulPartitionedCall/sequential/conv_lst_m2d_1/while/body/_75/input_control_node/_173"], "attr": {"dtype": {"type": "DT_FLOAT"}, "value": {"tensor": {"dtype": "DT_FLOAT", "tensorShape": {}}}}}, {"name": "ConstantFolding/StatefulPartitionedCall/sequential/conv_lst_m2d_1/while/body/_75/sequential/conv_lst_m2d_1/while/split-folded-0", "op": "Const", "input": ["^Func/StatefulPartitionedCall/sequential/conv_lst_m2d_1/while/body/_75/input_control_node/_173", "^StatefulPartitionedCall/sequential/conv_lst_m2d_1/while/enter/_84"], "attr": {"dtype": {"type": "DT_FLOAT"}, "value": {"tensor": {"dtype": "DT_FLOAT", "tensorShape": {"dim": [{"size": "3"}, {"size": "3"}, {"size": "20"}, {"size": "40"}]}}}}}, {"name": "ConstantFolding/StatefulPartitionedCall/sequential/conv_lst_m2d_1/while/body/_75/sequential/conv_lst_m2d_1/while/split_1-folded-0", "op": "Const", "input": ["^Func/StatefulPartitionedCall/sequential/conv_lst_m2d_1/while/body/_75/input_control_node/_173", "^StatefulPartitionedCall/sequential/conv_lst_m2d_1/while/enter/_85"], "attr": {"dtype": {"type": "DT_FLOAT"}, "value": {"tensor": {"dtype": "DT_FLOAT", "tensorShape": {"dim": [{"size": "3"}, {"size": "3"}, {"size": "40"}, {"size": "40"}]}}}}}, {"name": "StatefulPartitionedCall/sequential/conv_lst_m2d_1/while/body/_75/sequential/conv_lst_m2d_1/while/Const_3", "op": "Const", "input": ["^Func/StatefulPartitionedCall/sequential/conv_lst_m2d_1/while/body/_75/input_control_node/_173"], "attr": {"value": {"tensor": {"dtype": "DT_FLOAT", "tensorShape": {}}}, "dtype": {"type": "DT_FLOAT"}}}, {"name": "StatefulPartitionedCall/sequential/conv_lst_m2d_1/while/body/_75/sequential/conv_lst_m2d_1/while/Const_4", "op": "Const", "input": ["^Func/StatefulPartitionedCall/sequential/conv_lst_m2d_1/while/body/_75/input_control_node/_173"], "attr": {"value": {"tensor": {"dtype": "DT_FLOAT", "tensorShape": {}}}, "dtype": {"type": "DT_FLOAT"}}}, {"name": "StatefulPartitionedCall/sequential/conv_lst_m2d_1/while/body/_75/sequential/conv_lst_m2d_1/while/clip_by_value/Minimum/y", "op": "Const", "input": ["^Func/StatefulPartitionedCall/sequential/conv_lst_m2d_1/while/body/_75/input_control_node/_173"], "attr": {"value": {"tensor": {"dtype": "DT_FLOAT", "tensorShape": {}}}, "dtype": {"type": "DT_FLOAT"}}}, {"name": "StatefulPartitionedCall/sequential/conv_lst_m2d_1/while/body/_75/sequential/conv_lst_m2d_1/while/clip_by_value/y", "op": "Const", "input": ["^Func/StatefulPartitionedCall/sequential/conv_lst_m2d_1/while/body/_75/input_control_node/_173"], "attr": {"dtype": {"type": "DT_FLOAT"}, "value": {"tensor": {"dtype": "DT_FLOAT", "tensorShape": {}}}}}, {"name": "StatefulPartitionedCall/sequential/conv_lst_m2d_1/while/next_iteration/_122", "op": "NextIteration", "input": ["StatefulPartitionedCall/sequential/conv_lst_m2d_1/while/StatefulPartitionedCall/sequential/conv_lst_m2d_1/TensorArrayUnstack/TensorListFromTensor_switch/_104:1", "^Func/StatefulPartitionedCall/sequential/conv_lst_m2d_1/while/body/_75/input_control_node/_173"], "attr": {"T": {"type": "DT_VARIANT"}}}, {"name": "StatefulPartitionedCall/sequential/conv_lst_m2d_1/while/body/_75/sequential/conv_lst_m2d_1/while/TensorArrayV2Read/TensorListGetItem/element_shape", "op": "Const", "input": ["^Func/StatefulPartitionedCall/sequential/conv_lst_m2d_1/while/body/_75/input_control_node/_173"], "attr": {"value": {"tensor": {"dtype": "DT_INT32", "tensorShape": {"dim": [{"size": "4"}]}}}, "dtype": {"type": "DT_INT32"}}}, {"name": "ConstantFolding/StatefulPartitionedCall/sequential/conv_lst_m2d_1/while/body/_75/sequential/conv_lst_m2d_1/while/split-folded-2", "op": "Const", "input": ["^Func/StatefulPartitionedCall/sequential/conv_lst_m2d_1/while/body/_75/input_control_node/_173", "^StatefulPartitionedCall/sequential/conv_lst_m2d_1/while/enter/_84"], "attr": {"dtype": {"type": "DT_FLOAT"}, "value": {"tensor": {"dtype": "DT_FLOAT", "tensorShape": {"dim": [{"size": "3"}, {"size": "3"}, {"size": "20"}, {"size": "40"}]}}}}}, {"name": "Func/StatefulPartitionedCall/sequential/conv_lst_m2d_1/while/body/_75/input/_178", "op": "Identity", "input": ["StatefulPartitionedCall/sequential/conv_lst_m2d_1/while/StatefulPartitionedCall/sequential/conv_lst_m2d_1/convolution_switch/_101:1", "^Func/StatefulPartitionedCall/sequential/conv_lst_m2d_1/while/body/_75/input_control_node/_173"], "attr": {"T": {"type": "DT_FLOAT"}}}, {"name": "ConstantFolding/StatefulPartitionedCall/sequential/conv_lst_m2d_1/while/body/_75/sequential/conv_lst_m2d_1/while/split_1-folded-2", "op": "Const", "input": ["^Func/StatefulPartitionedCall/sequential/conv_lst_m2d_1/while/body/_75/input_control_node/_173", "^StatefulPartitionedCall/sequential/conv_lst_m2d_1/while/enter/_85"], "attr": {"dtype": {"type": "DT_FLOAT"}, "value": {"tensor": {"dtype": "DT_FLOAT", "tensorShape": {"dim": [{"size": "3"}, {"size": "3"}, {"size": "40"}, {"size": "40"}]}}}}}, {"name": "Func/StatefulPartitionedCall/sequential/conv_lst_m2d_1/while/body/_75/input/_176", "op": "Identity", "input": ["StatefulPartitionedCall/sequential/conv_lst_m2d_1/while/StatefulPartitionedCall/sequential/conv_lst_m2d_1/time_switch/_99:1", "^Func/StatefulPartitionedCall/sequential/conv_lst_m2d_1/while/body/_75/input_control_node/_173"], "attr": {"T": {"type": "DT_INT32"}}}, {"name": "StatefulPartitionedCall/sequential/conv_lst_m2d_1/while/body/_75/sequential/conv_lst_m2d_1/while/add_8/y", "op": "Const", "input": ["^Func/StatefulPartitionedCall/sequential/conv_lst_m2d_1/while/body/_75/input_control_node/_173"], "attr": {"value": {"tensor": {"dtype": "DT_INT32", "tensorShape": {}}}, "dtype": {"type": "DT_INT32"}}}, {"name": "StatefulPartitionedCall/sequential/conv_lst_m2d_1/while/body/_75/sequential/conv_lst_m2d_1/while/add_9/y", "op": "Const", "input": ["^Func/StatefulPartitionedCall/sequential/conv_lst_m2d_1/while/body/_75/input_control_node/_173"], "attr": {"dtype": {"type": "DT_INT32"}, "value": {"tensor": {"dtype": "DT_INT32", "tensorShape": {}}}}}, {"name": "StatefulPartitionedCall/sequential/conv_lst_m2d_1/while/next_iteration/_116", "op": "NextIteration", "input": ["StatefulPartitionedCall/sequential/conv_lst_m2d_1/while/StatefulPartitionedCall/sequential/conv_lst_m2d_1/while/maximum_iterations_switch/_98:1", "^Func/StatefulPartitionedCall/sequential/conv_lst_m2d_1/while/body/_75/input_control_node/_173"], "attr": {"T": {"type": "DT_INT32"}}}, {"name": "ConstantFolding/StatefulPartitionedCall/sequential/conv_lst_m2d_1/while/body/_75/sequential/conv_lst_m2d_1/while/split_2-folded-3", "op": "Const", "input": ["^Func/StatefulPartitionedCall/sequential/conv_lst_m2d_1/while/body/_75/input_control_node/_173", "^StatefulPartitionedCall/sequential/conv_lst_m2d_1/while/enter/_86"], "attr": {"dtype": {"type": "DT_FLOAT"}, "value": {"tensor": {"dtype": "DT_FLOAT", "tensorShape": {"dim": [{"size": "40"}]}}}}}, {"name": "ConstantFolding/StatefulPartitionedCall/sequential/conv_lst_m2d_1/while/body/_75/sequential/conv_lst_m2d_1/while/split_2-folded-1", "op": "Const", "input": ["^Func/StatefulPartitionedCall/sequential/conv_lst_m2d_1/while/body/_75/input_control_node/_173", "^StatefulPartitionedCall/sequential/conv_lst_m2d_1/while/enter/_86"], "attr": {"value": {"tensor": {"dtype": "DT_FLOAT", "tensorShape": {"dim": [{"size": "40"}]}}}, "dtype": {"type": "DT_FLOAT"}}}, {"name": "ConstantFolding/StatefulPartitionedCall/sequential/conv_lst_m2d_1/while/body/_75/sequential/conv_lst_m2d_1/while/split_2-folded-0", "op": "Const", "input": ["^Func/StatefulPartitionedCall/sequential/conv_lst_m2d_1/while/body/_75/input_control_node/_173", "^StatefulPartitionedCall/sequential/conv_lst_m2d_1/while/enter/_86"], "attr": {"value": {"tensor": {"dtype": "DT_FLOAT", "tensorShape": {"dim": [{"size": "40"}]}}}, "dtype": {"type": "DT_FLOAT"}}}, {"name": "ConstantFolding/StatefulPartitionedCall/sequential/conv_lst_m2d_1/while/body/_75/sequential/conv_lst_m2d_1/while/split_2-folded-2", "op": "Const", "input": ["^Func/StatefulPartitionedCall/sequential/conv_lst_m2d_1/while/body/_75/input_control_node/_173", "^StatefulPartitionedCall/sequential/conv_lst_m2d_1/while/enter/_86"], "attr": {"dtype": {"type": "DT_FLOAT"}, "value": {"tensor": {"dtype": "DT_FLOAT", "tensorShape": {"dim": [{"size": "40"}]}}}}}, {"name": "StatefulPartitionedCall/sequential/batch_normalization_1/batchnorm/mul_1", "op": "Mul", "input": ["StatefulPartitionedCall/sequential/conv_lst_m2d_1/transpose_1", "StatefulPartitionedCall/sequential/batch_normalization_1/batchnorm/mul"], "attr": {"T": {"type": "DT_FLOAT"}}}, {"name": "StatefulPartitionedCall/sequential/conv_lst_m2d_1/while/body/_75/sequential/conv_lst_m2d_1/while/convolution_7", "op": "Conv2D", "input": ["Func/StatefulPartitionedCall/sequential/conv_lst_m2d_1/while/body/_75/input/_178", "ConstantFolding/StatefulPartitionedCall/sequential/conv_lst_m2d_1/while/body/_75/sequential/conv_lst_m2d_1/while/split_1-folded-3"], "device": "/device:CPU:0", "attr": {"use_cudnn_on_gpu": {"b": true}, "strides": {"list": {"i": ["1", "1", "1", "1"]}}, "padding": {"s": "U0FNRQ=="}, "explicit_paddings": {"list": {}}, "dilations": {"list": {"i": ["1", "1", "1", "1"]}}, "T": {"type": "DT_FLOAT"}, "data_format": {"s": "TkhXQw=="}}}, {"name": "StatefulPartitionedCall/sequential/conv_lst_m2d_1/while/body/_75/sequential/conv_lst_m2d_1/while/convolution_5", "op": "Conv2D", "input": ["Func/StatefulPartitionedCall/sequential/conv_lst_m2d_1/while/body/_75/input/_178", "ConstantFolding/StatefulPartitionedCall/sequential/conv_lst_m2d_1/while/body/_75/sequential/conv_lst_m2d_1/while/split_1-folded-1"], "device": "/device:CPU:0", "attr": {"strides": {"list": {"i": ["1", "1", "1", "1"]}}, "explicit_paddings": {"list": {}}, "dilations": {"list": {"i": ["1", "1", "1", "1"]}}, "T": {"type": "DT_FLOAT"}, "data_format": {"s": "TkhXQw=="}, "padding": {"s": "U0FNRQ=="}, "use_cudnn_on_gpu": {"b": true}}}, {"name": "StatefulPartitionedCall/sequential/conv_lst_m2d_1/while/body/_75/sequential/conv_lst_m2d_1/while/convolution_4", "op": "Conv2D", "input": ["Func/StatefulPartitionedCall/sequential/conv_lst_m2d_1/while/body/_75/input/_178", "ConstantFolding/StatefulPartitionedCall/sequential/conv_lst_m2d_1/while/body/_75/sequential/conv_lst_m2d_1/while/split_1-folded-0"], "device": "/device:CPU:0", "attr": {"use_cudnn_on_gpu": {"b": true}, "strides": {"list": {"i": ["1", "1", "1", "1"]}}, "padding": {"s": "U0FNRQ=="}, "explicit_paddings": {"list": {}}, "dilations": {"list": {"i": ["1", "1", "1", "1"]}}, "T": {"type": "DT_FLOAT"}, "data_format": {"s": "TkhXQw=="}}}, {"name": "StatefulPartitionedCall/sequential/conv_lst_m2d_1/while/body/_75/sequential/conv_lst_m2d_1/while/convolution_6", "op": "Conv2D", "input": ["Func/StatefulPartitionedCall/sequential/conv_lst_m2d_1/while/body/_75/input/_178", "ConstantFolding/StatefulPartitionedCall/sequential/conv_lst_m2d_1/while/body/_75/sequential/conv_lst_m2d_1/while/split_1-folded-2"], "device": "/device:CPU:0", "attr": {"use_cudnn_on_gpu": {"b": true}, "strides": {"list": {"i": ["1", "1", "1", "1"]}}, "padding": {"s": "U0FNRQ=="}, "explicit_paddings": {"list": {}}, "dilations": {"list": {"i": ["1", "1", "1", "1"]}}, "T": {"type": "DT_FLOAT"}, "data_format": {"s": "TkhXQw=="}}}, {"name": "StatefulPartitionedCall/sequential/conv_lst_m2d_1/while/body/_75/sequential/conv_lst_m2d_1/while/TensorArrayV2Read/TensorListGetItem", "op": "TensorListGetItem", "input": ["StatefulPartitionedCall/sequential/conv_lst_m2d_1/while/StatefulPartitionedCall/sequential/conv_lst_m2d_1/TensorArrayUnstack/TensorListFromTensor_switch/_104:1", "Func/StatefulPartitionedCall/sequential/conv_lst_m2d_1/while/body/_75/input/_176", "StatefulPartitionedCall/sequential/conv_lst_m2d_1/while/body/_75/sequential/conv_lst_m2d_1/while/TensorArrayV2Read/TensorListGetItem/element_shape"], "attr": {"element_dtype": {"type": "DT_FLOAT"}}}, {"name": "StatefulPartitionedCall/sequential/conv_lst_m2d_1/while/body/_75/sequential/conv_lst_m2d_1/while/add_8", "op": "AddV2", "input": ["Func/StatefulPartitionedCall/sequential/conv_lst_m2d_1/while/body/_75/input/_176", "StatefulPartitionedCall/sequential/conv_lst_m2d_1/while/body/_75/sequential/conv_lst_m2d_1/while/add_8/y"], "attr": {"T": {"type": "DT_INT32"}}}, {"name": "StatefulPartitionedCall/sequential/conv_lst_m2d_1/while/body/_75/sequential/conv_lst_m2d_1/while/add_9", "op": "AddV2", "input": ["StatefulPartitionedCall/sequential/conv_lst_m2d_1/while/StatefulPartitionedCall/sequential/conv_lst_m2d_1/while/loop_counter_switch/_97:1", "StatefulPartitionedCall/sequential/conv_lst_m2d_1/while/body/_75/sequential/conv_lst_m2d_1/while/add_9/y"], "attr": {"T": {"type": "DT_INT32"}}}, {"name": "StatefulPartitionedCall/sequential/batch_normalization_1/batchnorm/add_1", "op": "AddV2", "input": ["StatefulPartitionedCall/sequential/batch_normalization_1/batchnorm/mul_1", "StatefulPartitionedCall/sequential/batch_normalization_1/batchnorm/sub"], "attr": {"T": {"type": "DT_FLOAT"}}}, {"name": "StatefulPartitionedCall/sequential/conv_lst_m2d_1/while/body/_75/sequential/conv_lst_m2d_1/while/BiasAdd_3", "op": "_FusedConv2D", "input": ["StatefulPartitionedCall/sequential/conv_lst_m2d_1/while/body/_75/sequential/conv_lst_m2d_1/while/TensorArrayV2Read/TensorListGetItem", "ConstantFolding/StatefulPartitionedCall/sequential/conv_lst_m2d_1/while/body/_75/sequential/conv_lst_m2d_1/while/split-folded-3", "ConstantFolding/StatefulPartitionedCall/sequential/conv_lst_m2d_1/while/body/_75/sequential/conv_lst_m2d_1/while/split_2-folded-3"], "device": "/device:CPU:0", "attr": {"use_cudnn_on_gpu": {"b": true}, "epsilon": {"f": 0.0}, "strides": {"list": {"i": ["1", "1", "1", "1"]}}, "fused_ops": {"list": {"s": ["Qmlhc0FkZA=="]}}, "padding": {"s": "U0FNRQ=="}, "explicit_paddings": {"list": {}}, "num_args": {"i": "1"}, "dilations": {"list": {"i": ["1", "1", "1", "1"]}}, "T": {"type": "DT_FLOAT"}, "data_format": {"s": "TkhXQw=="}}}, {"name": "StatefulPartitionedCall/sequential/conv_lst_m2d_1/while/body/_75/sequential/conv_lst_m2d_1/while/BiasAdd_1", "op": "_FusedConv2D", "input": ["StatefulPartitionedCall/sequential/conv_lst_m2d_1/while/body/_75/sequential/conv_lst_m2d_1/while/TensorArrayV2Read/TensorListGetItem", "ConstantFolding/StatefulPartitionedCall/sequential/conv_lst_m2d_1/while/body/_75/sequential/conv_lst_m2d_1/while/split-folded-1", "ConstantFolding/StatefulPartitionedCall/sequential/conv_lst_m2d_1/while/body/_75/sequential/conv_lst_m2d_1/while/split_2-folded-1"], "device": "/device:CPU:0", "attr": {"data_format": {"s": "TkhXQw=="}, "use_cudnn_on_gpu": {"b": true}, "fused_ops": {"list": {"s": ["Qmlhc0FkZA=="]}}, "padding": {"s": "U0FNRQ=="}, "epsilon": {"f": 0.0}, "strides": {"list": {"i": ["1", "1", "1", "1"]}}, "T": {"type": "DT_FLOAT"}, "explicit_paddings": {"list": {}}, "num_args": {"i": "1"}, "dilations": {"list": {"i": ["1", "1", "1", "1"]}}}}, {"name": "StatefulPartitionedCall/sequential/conv_lst_m2d_1/while/body/_75/sequential/conv_lst_m2d_1/while/BiasAdd", "op": "_FusedConv2D", "input": ["StatefulPartitionedCall/sequential/conv_lst_m2d_1/while/body/_75/sequential/conv_lst_m2d_1/while/TensorArrayV2Read/TensorListGetItem", "ConstantFolding/StatefulPartitionedCall/sequential/conv_lst_m2d_1/while/body/_75/sequential/conv_lst_m2d_1/while/split-folded-0", "ConstantFolding/StatefulPartitionedCall/sequential/conv_lst_m2d_1/while/body/_75/sequential/conv_lst_m2d_1/while/split_2-folded-0"], "device": "/device:CPU:0", "attr": {"strides": {"list": {"i": ["1", "1", "1", "1"]}}, "explicit_paddings": {"list": {}}, "dilations": {"list": {"i": ["1", "1", "1", "1"]}}, "T": {"type": "DT_FLOAT"}, "num_args": {"i": "1"}, "data_format": {"s": "TkhXQw=="}, "padding": {"s": "U0FNRQ=="}, "use_cudnn_on_gpu": {"b": true}, "epsilon": {"f": 0.0}, "fused_ops": {"list": {"s": ["Qmlhc0FkZA=="]}}}}, {"name": "StatefulPartitionedCall/sequential/conv_lst_m2d_1/while/body/_75/sequential/conv_lst_m2d_1/while/BiasAdd_2", "op": "_FusedConv2D", "input": ["StatefulPartitionedCall/sequential/conv_lst_m2d_1/while/body/_75/sequential/conv_lst_m2d_1/while/TensorArrayV2Read/TensorListGetItem", "ConstantFolding/StatefulPartitionedCall/sequential/conv_lst_m2d_1/while/body/_75/sequential/conv_lst_m2d_1/while/split-folded-2", "ConstantFolding/StatefulPartitionedCall/sequential/conv_lst_m2d_1/while/body/_75/sequential/conv_lst_m2d_1/while/split_2-folded-2"], "device": "/device:CPU:0", "attr": {"data_format": {"s": "TkhXQw=="}, "use_cudnn_on_gpu": {"b": true}, "fused_ops": {"list": {"s": ["Qmlhc0FkZA=="]}}, "padding": {"s": "U0FNRQ=="}, "epsilon": {"f": 0.0}, "strides": {"list": {"i": ["1", "1", "1", "1"]}}, "T": {"type": "DT_FLOAT"}, "explicit_paddings": {"list": {}}, "num_args": {"i": "1"}, "dilations": {"list": {"i": ["1", "1", "1", "1"]}}}}, {"name": "StatefulPartitionedCall/sequential/conv_lst_m2d_1/while/next_iteration/_117", "op": "NextIteration", "input": ["StatefulPartitionedCall/sequential/conv_lst_m2d_1/while/body/_75/sequential/conv_lst_m2d_1/while/add_8", "^Func/StatefulPartitionedCall/sequential/conv_lst_m2d_1/while/body/_75/input_control_node/_173"], "attr": {"T": {"type": "DT_INT32"}}}, {"name": "StatefulPartitionedCall/sequential/conv_lst_m2d_1/while/next_iteration/_115", "op": "NextIteration", "input": ["StatefulPartitionedCall/sequential/conv_lst_m2d_1/while/body/_75/sequential/conv_lst_m2d_1/while/add_9", "^Func/StatefulPartitionedCall/sequential/conv_lst_m2d_1/while/body/_75/input_control_node/_173"], "attr": {"T": {"type": "DT_INT32"}}}, {"name": "StatefulPartitionedCall/sequential/max_pooling3d_1/transpose", "op": "Transpose", "input": ["StatefulPartitionedCall/sequential/batch_normalization_1/batchnorm/add_1", "StatefulPartitionedCall/sequential/max_pooling3d_1/transpose/perm"], "attr": {"Tperm": {"type": "DT_INT32"}, "T": {"type": "DT_FLOAT"}}}, {"name": "StatefulPartitionedCall/sequential/conv_lst_m2d_1/while/body/_75/sequential/conv_lst_m2d_1/while/add_6", "op": "AddV2", "input": ["StatefulPartitionedCall/sequential/conv_lst_m2d_1/while/body/_75/sequential/conv_lst_m2d_1/while/BiasAdd_3", "StatefulPartitionedCall/sequential/conv_lst_m2d_1/while/body/_75/sequential/conv_lst_m2d_1/while/convolution_7"], "attr": {"T": {"type": "DT_FLOAT"}}}, {"name": "StatefulPartitionedCall/sequential/conv_lst_m2d_1/while/body/_75/sequential/conv_lst_m2d_1/while/add_2", "op": "AddV2", "input": ["StatefulPartitionedCall/sequential/conv_lst_m2d_1/while/body/_75/sequential/conv_lst_m2d_1/while/BiasAdd_1", "StatefulPartitionedCall/sequential/conv_lst_m2d_1/while/body/_75/sequential/conv_lst_m2d_1/while/convolution_5"], "attr": {"T": {"type": "DT_FLOAT"}}}, {"name": "StatefulPartitionedCall/sequential/conv_lst_m2d_1/while/body/_75/sequential/conv_lst_m2d_1/while/add", "op": "AddV2", "input": ["StatefulPartitionedCall/sequential/conv_lst_m2d_1/while/body/_75/sequential/conv_lst_m2d_1/while/BiasAdd", "StatefulPartitionedCall/sequential/conv_lst_m2d_1/while/body/_75/sequential/conv_lst_m2d_1/while/convolution_4"], "attr": {"T": {"type": "DT_FLOAT"}}}, {"name": "StatefulPartitionedCall/sequential/conv_lst_m2d_1/while/body/_75/sequential/conv_lst_m2d_1/while/add_4", "op": "AddV2", "input": ["StatefulPartitionedCall/sequential/conv_lst_m2d_1/while/body/_75/sequential/conv_lst_m2d_1/while/BiasAdd_2", "StatefulPartitionedCall/sequential/conv_lst_m2d_1/while/body/_75/sequential/conv_lst_m2d_1/while/convolution_6"], "attr": {"T": {"type": "DT_FLOAT"}}}, {"name": "StatefulPartitionedCall/sequential/max_pooling3d_1/MaxPool3D", "op": "MaxPool3D", "input": ["StatefulPartitionedCall/sequential/max_pooling3d_1/transpose"], "attr": {"strides": {"list": {"i": ["1", "1", "2", "2", "1"]}}, "data_format": {"s": "TkRIV0M="}, "ksize": {"list": {"i": ["1", "1", "2", "2", "1"]}}, "T": {"type": "DT_FLOAT"}, "padding": {"s": "U0FNRQ=="}}}, {"name": "StatefulPartitionedCall/sequential/conv_lst_m2d_1/while/body/_75/sequential/conv_lst_m2d_1/while/Mul_4", "op": "Mul", "input": ["StatefulPartitionedCall/sequential/conv_lst_m2d_1/while/body/_75/sequential/conv_lst_m2d_1/while/add_6", "StatefulPartitionedCall/sequential/conv_lst_m2d_1/while/body/_75/sequential/conv_lst_m2d_1/while/Const_7"], "attr": {"T": {"type": "DT_FLOAT"}}}, {"name": "StatefulPartitionedCall/sequential/conv_lst_m2d_1/while/body/_75/sequential/conv_lst_m2d_1/while/Mul_1", "op": "Mul", "input": ["StatefulPartitionedCall/sequential/conv_lst_m2d_1/while/body/_75/sequential/conv_lst_m2d_1/while/add_2", "StatefulPartitionedCall/sequential/conv_lst_m2d_1/while/body/_75/sequential/conv_lst_m2d_1/while/Const_5"], "attr": {"T": {"type": "DT_FLOAT"}}}, {"name": "StatefulPartitionedCall/sequential/conv_lst_m2d_1/while/body/_75/sequential/conv_lst_m2d_1/while/Mul", "op": "Mul", "input": ["StatefulPartitionedCall/sequential/conv_lst_m2d_1/while/body/_75/sequential/conv_lst_m2d_1/while/add", "StatefulPartitionedCall/sequential/conv_lst_m2d_1/while/body/_75/sequential/conv_lst_m2d_1/while/Const_3"], "attr": {"T": {"type": "DT_FLOAT"}}}, {"name": "StatefulPartitionedCall/sequential/conv_lst_m2d_1/while/body/_75/sequential/conv_lst_m2d_1/while/Tanh", "op": "Tanh", "input": ["StatefulPartitionedCall/sequential/conv_lst_m2d_1/while/body/_75/sequential/conv_lst_m2d_1/while/add_4"], "attr": {"T": {"type": "DT_FLOAT"}}}, {"name": "StatefulPartitionedCall/sequential/max_pooling3d_1/transpose_1", "op": "Transpose", "input": ["StatefulPartitionedCall/sequential/max_pooling3d_1/MaxPool3D", "StatefulPartitionedCall/sequential/max_pooling3d_1/transpose_1/perm"], "attr": {"Tperm": {"type": "DT_INT32"}, "T": {"type": "DT_FLOAT"}}}, {"name": "StatefulPartitionedCall/sequential/conv_lst_m2d_1/while/body/_75/sequential/conv_lst_m2d_1/while/Add_7", "op": "Add", "input": ["StatefulPartitionedCall/sequential/conv_lst_m2d_1/while/body/_75/sequential/conv_lst_m2d_1/while/Mul_4", "StatefulPartitionedCall/sequential/conv_lst_m2d_1/while/body/_75/sequential/conv_lst_m2d_1/while/Const_8"], "attr": {"T": {"type": "DT_FLOAT"}}}, {"name": "StatefulPartitionedCall/sequential/conv_lst_m2d_1/while/body/_75/sequential/conv_lst_m2d_1/while/Add_3", "op": "Add", "input": ["StatefulPartitionedCall/sequential/conv_lst_m2d_1/while/body/_75/sequential/conv_lst_m2d_1/while/Mul_1", "StatefulPartitionedCall/sequential/conv_lst_m2d_1/while/body/_75/sequential/conv_lst_m2d_1/while/Const_6"], "attr": {"T": {"type": "DT_FLOAT"}}}, {"name": "StatefulPartitionedCall/sequential/conv_lst_m2d_1/while/body/_75/sequential/conv_lst_m2d_1/while/Add_1", "op": "Add", "input": ["StatefulPartitionedCall/sequential/conv_lst_m2d_1/while/body/_75/sequential/conv_lst_m2d_1/while/Mul", "StatefulPartitionedCall/sequential/conv_lst_m2d_1/while/body/_75/sequential/conv_lst_m2d_1/while/Const_4"], "attr": {"T": {"type": "DT_FLOAT"}}}, {"name": "StatefulPartitionedCall/sequential/flatten/Reshape", "op": "Reshape", "input": ["StatefulPartitionedCall/sequential/max_pooling3d_1/transpose_1", "StatefulPartitionedCall/sequential/flatten/Const"], "attr": {"T": {"type": "DT_FLOAT"}, "Tshape": {"type": "DT_INT32"}}}, {"name": "StatefulPartitionedCall/sequential/conv_lst_m2d_1/while/body/_75/sequential/conv_lst_m2d_1/while/clip_by_value_2/Minimum", "op": "Minimum", "input": ["StatefulPartitionedCall/sequential/conv_lst_m2d_1/while/body/_75/sequential/conv_lst_m2d_1/while/Add_7", "StatefulPartitionedCall/sequential/conv_lst_m2d_1/while/body/_75/sequential/conv_lst_m2d_1/while/clip_by_value_2/Minimum/y"], "attr": {"T": {"type": "DT_FLOAT"}}}, {"name": "StatefulPartitionedCall/sequential/conv_lst_m2d_1/while/body/_75/sequential/conv_lst_m2d_1/while/clip_by_value_1/Minimum", "op": "Minimum", "input": ["StatefulPartitionedCall/sequential/conv_lst_m2d_1/while/body/_75/sequential/conv_lst_m2d_1/while/Add_3", "StatefulPartitionedCall/sequential/conv_lst_m2d_1/while/body/_75/sequential/conv_lst_m2d_1/while/clip_by_value_1/Minimum/y"], "attr": {"T": {"type": "DT_FLOAT"}}}, {"name": "StatefulPartitionedCall/sequential/conv_lst_m2d_1/while/body/_75/sequential/conv_lst_m2d_1/while/clip_by_value/Minimum", "op": "Minimum", "input": ["StatefulPartitionedCall/sequential/conv_lst_m2d_1/while/body/_75/sequential/conv_lst_m2d_1/while/Add_1", "StatefulPartitionedCall/sequential/conv_lst_m2d_1/while/body/_75/sequential/conv_lst_m2d_1/while/clip_by_value/Minimum/y"], "attr": {"T": {"type": "DT_FLOAT"}}}, {"name": "StatefulPartitionedCall/sequential/dense/Relu", "op": "_FusedMatMul", "input": ["StatefulPartitionedCall/sequential/flatten/Reshape", "unknown_13", "unknown_14"], "device": "/device:CPU:0", "attr": {"num_args": {"i": "1"}, "fused_ops": {"list": {"s": ["Qmlhc0FkZA==", "UmVsdQ=="]}}, "T": {"type": "DT_FLOAT"}, "transpose_b": {"b": false}, "transpose_a": {"b": false}, "epsilon": {"f": 0.0}}}, {"name": "StatefulPartitionedCall/sequential/conv_lst_m2d_1/while/body/_75/sequential/conv_lst_m2d_1/while/clip_by_value_2", "op": "Maximum", "input": ["StatefulPartitionedCall/sequential/conv_lst_m2d_1/while/body/_75/sequential/conv_lst_m2d_1/while/clip_by_value_2/Minimum", "StatefulPartitionedCall/sequential/conv_lst_m2d_1/while/body/_75/sequential/conv_lst_m2d_1/while/clip_by_value_2/y"], "attr": {"T": {"type": "DT_FLOAT"}}}, {"name": "StatefulPartitionedCall/sequential/conv_lst_m2d_1/while/body/_75/sequential/conv_lst_m2d_1/while/clip_by_value_1", "op": "Maximum", "input": ["StatefulPartitionedCall/sequential/conv_lst_m2d_1/while/body/_75/sequential/conv_lst_m2d_1/while/clip_by_value_1/Minimum", "StatefulPartitionedCall/sequential/conv_lst_m2d_1/while/body/_75/sequential/conv_lst_m2d_1/while/clip_by_value_1/y"], "attr": {"T": {"type": "DT_FLOAT"}}}, {"name": "StatefulPartitionedCall/sequential/conv_lst_m2d_1/while/body/_75/sequential/conv_lst_m2d_1/while/clip_by_value", "op": "Maximum", "input": ["StatefulPartitionedCall/sequential/conv_lst_m2d_1/while/body/_75/sequential/conv_lst_m2d_1/while/clip_by_value/Minimum", "StatefulPartitionedCall/sequential/conv_lst_m2d_1/while/body/_75/sequential/conv_lst_m2d_1/while/clip_by_value/y"], "attr": {"T": {"type": "DT_FLOAT"}}}, {"name": "StatefulPartitionedCall/sequential/dense_1/Relu", "op": "_FusedMatMul", "input": ["StatefulPartitionedCall/sequential/dense/Relu", "unknown_15", "unknown_16"], "device": "/device:CPU:0", "attr": {"transpose_a": {"b": false}, "transpose_b": {"b": false}, "epsilon": {"f": 0.0}, "fused_ops": {"list": {"s": ["Qmlhc0FkZA==", "UmVsdQ=="]}}, "T": {"type": "DT_FLOAT"}, "num_args": {"i": "1"}}}, {"name": "StatefulPartitionedCall/sequential/conv_lst_m2d_1/while/body/_75/sequential/conv_lst_m2d_1/while/mul_2", "op": "Mul", "input": ["StatefulPartitionedCall/sequential/conv_lst_m2d_1/while/body/_75/sequential/conv_lst_m2d_1/while/clip_by_value_1", "StatefulPartitionedCall/sequential/conv_lst_m2d_1/while/StatefulPartitionedCall/sequential/conv_lst_m2d_1/convolution_switch/_102:1"], "attr": {"T": {"type": "DT_FLOAT"}}}, {"name": "StatefulPartitionedCall/sequential/conv_lst_m2d_1/while/body/_75/sequential/conv_lst_m2d_1/while/mul_3", "op": "Mul", "input": ["StatefulPartitionedCall/sequential/conv_lst_m2d_1/while/body/_75/sequential/conv_lst_m2d_1/while/clip_by_value", "StatefulPartitionedCall/sequential/conv_lst_m2d_1/while/body/_75/sequential/conv_lst_m2d_1/while/Tanh"], "attr": {"T": {"type": "DT_FLOAT"}}}, {"name": "StatefulPartitionedCall/sequential/dense_2/Relu", "op": "_FusedMatMul", "input": ["StatefulPartitionedCall/sequential/dense_1/Relu", "unknown_17", "unknown_18"], "device": "/device:CPU:0", "attr": {"transpose_a": {"b": false}, "transpose_b": {"b": false}, "epsilon": {"f": 0.0}, "fused_ops": {"list": {"s": ["Qmlhc0FkZA==", "UmVsdQ=="]}}, "T": {"type": "DT_FLOAT"}, "num_args": {"i": "1"}}}, {"name": "StatefulPartitionedCall/sequential/conv_lst_m2d_1/while/body/_75/sequential/conv_lst_m2d_1/while/add_5", "op": "AddV2", "input": ["StatefulPartitionedCall/sequential/conv_lst_m2d_1/while/body/_75/sequential/conv_lst_m2d_1/while/mul_2", "StatefulPartitionedCall/sequential/conv_lst_m2d_1/while/body/_75/sequential/conv_lst_m2d_1/while/mul_3"], "attr": {"T": {"type": "DT_FLOAT"}}}, {"name": "StatefulPartitionedCall/sequential/dense_3/BiasAdd", "op": "_FusedMatMul", "input": ["StatefulPartitionedCall/sequential/dense_2/Relu", "unknown_19", "unknown_20"], "device": "/device:CPU:0", "attr": {"transpose_a": {"b": false}, "transpose_b": {"b": false}, "epsilon": {"f": 0.0}, "fused_ops": {"list": {"s": ["Qmlhc0FkZA=="]}}, "T": {"type": "DT_FLOAT"}, "num_args": {"i": "1"}}}, {"name": "StatefulPartitionedCall/sequential/conv_lst_m2d_1/while/body/_75/sequential/conv_lst_m2d_1/while/Tanh_1", "op": "Tanh", "input": ["StatefulPartitionedCall/sequential/conv_lst_m2d_1/while/body/_75/sequential/conv_lst_m2d_1/while/add_5"], "attr": {"T": {"type": "DT_FLOAT"}}}, {"name": "StatefulPartitionedCall/sequential/conv_lst_m2d_1/while/next_iteration/_120", "op": "NextIteration", "input": ["StatefulPartitionedCall/sequential/conv_lst_m2d_1/while/body/_75/sequential/conv_lst_m2d_1/while/add_5", "^Func/StatefulPartitionedCall/sequential/conv_lst_m2d_1/while/body/_75/input_control_node/_173"], "attr": {"T": {"type": "DT_FLOAT"}}}, {"name": "StatefulPartitionedCall/sequential/dense_3/Sigmoid", "op": "Sigmoid", "input": ["StatefulPartitionedCall/sequential/dense_3/BiasAdd"], "attr": {"T": {"type": "DT_FLOAT"}}}, {"name": "StatefulPartitionedCall/sequential/conv_lst_m2d_1/while/body/_75/sequential/conv_lst_m2d_1/while/mul_5", "op": "Mul", "input": ["StatefulPartitionedCall/sequential/conv_lst_m2d_1/while/body/_75/sequential/conv_lst_m2d_1/while/clip_by_value_2", "StatefulPartitionedCall/sequential/conv_lst_m2d_1/while/body/_75/sequential/conv_lst_m2d_1/while/Tanh_1"], "attr": {"T": {"type": "DT_FLOAT"}}}, {"name": "Identity", "op": "Identity", "input": ["StatefulPartitionedCall/sequential/dense_3/Sigmoid", "^StatefulPartitionedCall/sequential/conv_lst_m2d_1/while/exit/_113", "^StatefulPartitionedCall/sequential/conv_lst_m2d/while/exit/_64", "^StatefulPartitionedCall/sequential/conv_lst_m2d_1/while/exit/_106", "^StatefulPartitionedCall/sequential/conv_lst_m2d_1/while/exit/_107", "^StatefulPartitionedCall/sequential/conv_lst_m2d_1/while/exit/_108", "^StatefulPartitionedCall/sequential/conv_lst_m2d_1/while/exit/_109", "^StatefulPartitionedCall/sequential/conv_lst_m2d_1/while/exit/_110", "^StatefulPartitionedCall/sequential/conv_lst_m2d_1/while/exit/_111", "^StatefulPartitionedCall/sequential/conv_lst_m2d_1/while/exit/_112", "^StatefulPartitionedCall/sequential/conv_lst_m2d/while/exit/_57", "^StatefulPartitionedCall/sequential/conv_lst_m2d/while/exit/_58", "^StatefulPartitionedCall/sequential/conv_lst_m2d/while/exit/_59", "^StatefulPartitionedCall/sequential/conv_lst_m2d/while/exit/_60", "^StatefulPartitionedCall/sequential/conv_lst_m2d/while/exit/_61", "^StatefulPartitionedCall/sequential/conv_lst_m2d/while/exit/_62", "^StatefulPartitionedCall/sequential/conv_lst_m2d/while/exit/_63"], "attr": {"T": {"type": "DT_FLOAT"}}}, {"name": "StatefulPartitionedCall/sequential/conv_lst_m2d_1/while/body/_75/sequential/conv_lst_m2d_1/while/TensorArrayV2Write/TensorListSetItem", "op": "TensorListSetItem", "input": ["StatefulPartitionedCall/sequential/conv_lst_m2d_1/while/StatefulPartitionedCall/sequential/conv_lst_m2d_1/TensorArrayV2_1_switch/_100:1", "Func/StatefulPartitionedCall/sequential/conv_lst_m2d_1/while/body/_75/input/_176", "StatefulPartitionedCall/sequential/conv_lst_m2d_1/while/body/_75/sequential/conv_lst_m2d_1/while/mul_5"], "attr": {"element_dtype": {"type": "DT_FLOAT"}}}, {"name": "StatefulPartitionedCall/sequential/conv_lst_m2d_1/while/next_iteration/_119", "op": "NextIteration", "input": ["StatefulPartitionedCall/sequential/conv_lst_m2d_1/while/body/_75/sequential/conv_lst_m2d_1/while/mul_5", "^Func/StatefulPartitionedCall/sequential/conv_lst_m2d_1/while/body/_75/input_control_node/_173"], "attr": {"T": {"type": "DT_FLOAT"}}}, {"name": "StatefulPartitionedCall/sequential/conv_lst_m2d_1/while/next_iteration/_118", "op": "NextIteration", "input": ["StatefulPartitionedCall/sequential/conv_lst_m2d_1/while/body/_75/sequential/conv_lst_m2d_1/while/TensorArrayV2Write/TensorListSetItem", "^Func/StatefulPartitionedCall/sequential/conv_lst_m2d_1/while/body/_75/input_control_node/_173"], "attr": {"T": {"type": "DT_VARIANT"}}}], "library": {}, "versions": {"producer": 587}}, "weightsManifest": [{"paths": ["group1-shard1of2.bin", "group1-shard2of2.bin"], "weights": [{"name": "StatefulPartitionedCall/sequential/conv_lst_m2d_1/TensorArrayV2Stack/TensorListStack/element_shape", "shape": [4], "dtype": "int32"}, {"name": "StatefulPartitionedCall/sequential/conv_lst_m2d_1/transpose_1/perm", "shape": [5], "dtype": "int32"}, {"name": "StatefulPartitionedCall/sequential/batch_normalization_1/batchnorm/mul", "shape": [40], "dtype": "float32"}, {"name": "StatefulPartitionedCall/sequential/batch_normalization_1/batchnorm/sub", "shape": [40], "dtype": "float32"}, {"name": "StatefulPartitionedCall/sequential/max_pooling3d_1/transpose/perm", "shape": [5], "dtype": "int32"}, {"name": "StatefulPartitionedCall/sequential/max_pooling3d_1/transpose_1/perm", "shape": [5], "dtype": "int32"}, {"name": "StatefulPartitionedCall/sequential/flatten/Const", "shape": [2], "dtype": "int32"}, {"name": "unknown_13", "shape": [5120, 128], "dtype": "float32"}, {"name": "unknown_14", "shape": [128], "dtype": "float32"}, {"name": "unknown_15", "shape": [128, 128], "dtype": "float32"}, {"name": "unknown_16", "shape": [128], "dtype": "float32"}, {"name": "unknown_17", "shape": [128, 128], "dtype": "float32"}, {"name": "unknown_18", "shape": [128], "dtype": "float32"}, {"name": "unknown_19", "shape": [128, 1], "dtype": "float32"}, {"name": "unknown_20", "shape": [1], "dtype": "float32"}, {"name": "StatefulPartitionedCall/sequential/conv_lst_m2d_1/time", "shape": [], "dtype": "int32"}, {"name": "StatefulPartitionedCall/sequential/conv_lst_m2d_1/while/loop_counter", "shape": [], "dtype": "int32"}, {"name": "StatefulPartitionedCall/sequential/conv_lst_m2d_1/while/maximum_iterations", "shape": [], "dtype": "int32"}, {"name": "Func/StatefulPartitionedCall/input/_8", "shape": [3, 3, 20, 160], "dtype": "float32"}, {"name": "Func/StatefulPartitionedCall/input/_9", "shape": [3, 3, 40, 160], "dtype": "float32"}, {"name": "Func/StatefulPartitionedCall/input/_10", "shape": [160], "dtype": "float32"}, {"name": "StatefulPartitionedCall/sequential/conv_lst_m2d_1/TensorArrayUnstack/TensorListFromTensor/element_shape", "shape": [4], "dtype": "int32"}, {"name": "StatefulPartitionedCall/sequential/conv_lst_m2d_1/TensorArrayV2_1/element_shape", "shape": [4], "dtype": "int32"}, {"name": "StatefulPartitionedCall/sequential/conv_lst_m2d_1/transpose/perm", "shape": [5], "dtype": "int32"}, {"name": "StatefulPartitionedCall/sequential/conv_lst_m2d_1/strided_slice/stack", "shape": [1], "dtype": "int32"}, {"name": "StatefulPartitionedCall/sequential/conv_lst_m2d_1/strided_slice/stack_1", "shape": [1], "dtype": "int32"}, {"name": "StatefulPartitionedCall/sequential/conv_lst_m2d_1/strided_slice/stack_2", "shape": [1], "dtype": "int32"}, {"name": "StatefulPartitionedCall/sequential/conv_lst_m2d/TensorArrayV2Stack/TensorListStack/element_shape", "shape": [4], "dtype": "int32"}, {"name": "StatefulPartitionedCall/sequential/conv_lst_m2d/transpose_1/perm", "shape": [5], "dtype": "int32"}, {"name": "StatefulPartitionedCall/sequential/batch_normalization/batchnorm/mul", "shape": [40], "dtype": "float32"}, {"name": "StatefulPartitionedCall/sequential/batch_normalization/batchnorm/sub", "shape": [40], "dtype": "float32"}, {"name": "StatefulPartitionedCall/sequential/max_pooling3d/transpose/perm", "shape": [5], "dtype": "int32"}, {"name": "StatefulPartitionedCall/sequential/max_pooling3d/transpose_1/perm", "shape": [5], "dtype": "int32"}, {"name": "StatefulPartitionedCall/sequential/conv_lst_m2d_1/Sum/reduction_indices", "shape": [], "dtype": "int32"}, {"name": "StatefulPartitionedCall/sequential/conv_lst_m2d_1/zeros", "shape": [3, 3, 20, 40], "dtype": "float32"}, {"name": "StatefulPartitionedCall/sequential/conv_lst_m2d/time", "shape": [], "dtype": "int32"}, {"name": "StatefulPartitionedCall/sequential/conv_lst_m2d/while/loop_counter", "shape": [], "dtype": "int32"}, {"name": "StatefulPartitionedCall/sequential/conv_lst_m2d/while/maximum_iterations", "shape": [], "dtype": "int32"}, {"name": "Func/StatefulPartitionedCall/input/_1", "shape": [3, 3, 128, 160], "dtype": "float32"}, {"name": "Func/StatefulPartitionedCall/input/_2", "shape": [3, 3, 40, 160], "dtype": "float32"}, {"name": "Func/StatefulPartitionedCall/input/_3", "shape": [160], "dtype": "float32"}, {"name": "StatefulPartitionedCall/sequential/conv_lst_m2d/TensorArrayUnstack/TensorListFromTensor/element_shape", "shape": [4], "dtype": "int32"}, {"name": "StatefulPartitionedCall/sequential/conv_lst_m2d/TensorArrayV2_1/element_shape", "shape": [4], "dtype": "int32"}, {"name": "StatefulPartitionedCall/sequential/conv_lst_m2d/transpose/perm", "shape": [5], "dtype": "int32"}, {"name": "StatefulPartitionedCall/sequential/conv_lst_m2d/strided_slice/stack", "shape": [1], "dtype": "int32"}, {"name": "StatefulPartitionedCall/sequential/conv_lst_m2d/strided_slice/stack_1", "shape": [1], "dtype": "int32"}, {"name": "StatefulPartitionedCall/sequential/conv_lst_m2d/strided_slice/stack_2", "shape": [1], "dtype": "int32"}, {"name": "StatefulPartitionedCall/sequential/conv_lst_m2d/Sum/reduction_indices", "shape": [], "dtype": "int32"}, {"name": "StatefulPartitionedCall/sequential/conv_lst_m2d/zeros", "shape": [3, 3, 128, 40], "dtype": "float32"}, {"name": "ConstantFolding/StatefulPartitionedCall/sequential/conv_lst_m2d/while/body/_26/sequential/conv_lst_m2d/while/split-folded-3", "shape": [3, 3, 128, 40], "dtype": "float32"}, {"name": "ConstantFolding/StatefulPartitionedCall/sequential/conv_lst_m2d/while/body/_26/sequential/conv_lst_m2d/while/split_1-folded-3", "shape": [3, 3, 40, 40], "dtype": "float32"}, {"name": "StatefulPartitionedCall/sequential/conv_lst_m2d/while/body/_26/sequential/conv_lst_m2d/while/Const_7", "shape": [], "dtype": "float32"}, {"name": "StatefulPartitionedCall/sequential/conv_lst_m2d/while/body/_26/sequential/conv_lst_m2d/while/Const_8", "shape": [], "dtype": "float32"}, {"name": "StatefulPartitionedCall/sequential/conv_lst_m2d/while/body/_26/sequential/conv_lst_m2d/while/clip_by_value_2/Minimum/y", "shape": [], "dtype": "float32"}, {"name": "StatefulPartitionedCall/sequential/conv_lst_m2d/while/body/_26/sequential/conv_lst_m2d/while/clip_by_value_2/y", "shape": [], "dtype": "float32"}, {"name": "ConstantFolding/StatefulPartitionedCall/sequential/conv_lst_m2d/while/body/_26/sequential/conv_lst_m2d/while/split-folded-1", "shape": [3, 3, 128, 40], "dtype": "float32"}, {"name": "ConstantFolding/StatefulPartitionedCall/sequential/conv_lst_m2d/while/body/_26/sequential/conv_lst_m2d/while/split_1-folded-1", "shape": [3, 3, 40, 40], "dtype": "float32"}, {"name": "StatefulPartitionedCall/sequential/conv_lst_m2d/while/body/_26/sequential/conv_lst_m2d/while/Const_5", "shape": [], "dtype": "float32"}, {"name": "StatefulPartitionedCall/sequential/conv_lst_m2d/while/body/_26/sequential/conv_lst_m2d/while/Const_6", "shape": [], "dtype": "float32"}, {"name": "StatefulPartitionedCall/sequential/conv_lst_m2d/while/body/_26/sequential/conv_lst_m2d/while/clip_by_value_1/Minimum/y", "shape": [], "dtype": "float32"}, {"name": "StatefulPartitionedCall/sequential/conv_lst_m2d/while/body/_26/sequential/conv_lst_m2d/while/clip_by_value_1/y", "shape": [], "dtype": "float32"}, {"name": "ConstantFolding/StatefulPartitionedCall/sequential/conv_lst_m2d/while/body/_26/sequential/conv_lst_m2d/while/split-folded-0", "shape": [3, 3, 128, 40], "dtype": "float32"}, {"name": "ConstantFolding/StatefulPartitionedCall/sequential/conv_lst_m2d/while/body/_26/sequential/conv_lst_m2d/while/split_1-folded-0", "shape": [3, 3, 40, 40], "dtype": "float32"}, {"name": "StatefulPartitionedCall/sequential/conv_lst_m2d/while/body/_26/sequential/conv_lst_m2d/while/Const_3", "shape": [], "dtype": "float32"}, {"name": "StatefulPartitionedCall/sequential/conv_lst_m2d/while/body/_26/sequential/conv_lst_m2d/while/Const_4", "shape": [], "dtype": "float32"}, {"name": "StatefulPartitionedCall/sequential/conv_lst_m2d/while/body/_26/sequential/conv_lst_m2d/while/clip_by_value/Minimum/y", "shape": [], "dtype": "float32"}, {"name": "StatefulPartitionedCall/sequential/conv_lst_m2d/while/body/_26/sequential/conv_lst_m2d/while/clip_by_value/y", "shape": [], "dtype": "float32"}, {"name": "StatefulPartitionedCall/sequential/conv_lst_m2d/while/body/_26/sequential/conv_lst_m2d/while/TensorArrayV2Read/TensorListGetItem/element_shape", "shape": [4], "dtype": "int32"}, {"name": "ConstantFolding/StatefulPartitionedCall/sequential/conv_lst_m2d/while/body/_26/sequential/conv_lst_m2d/while/split-folded-2", "shape": [3, 3, 128, 40], "dtype": "float32"}, {"name": "ConstantFolding/StatefulPartitionedCall/sequential/conv_lst_m2d/while/body/_26/sequential/conv_lst_m2d/while/split_1-folded-2", "shape": [3, 3, 40, 40], "dtype": "float32"}, {"name": "StatefulPartitionedCall/sequential/conv_lst_m2d/while/body/_26/sequential/conv_lst_m2d/while/add_8/y", "shape": [], "dtype": "int32"}, {"name": "StatefulPartitionedCall/sequential/conv_lst_m2d/while/body/_26/sequential/conv_lst_m2d/while/add_9/y", "shape": [], "dtype": "int32"}, {"name": "ConstantFolding/StatefulPartitionedCall/sequential/conv_lst_m2d/while/body/_26/sequential/conv_lst_m2d/while/split_2-folded-3", "shape": [40], "dtype": "float32"}, {"name": "ConstantFolding/StatefulPartitionedCall/sequential/conv_lst_m2d/while/body/_26/sequential/conv_lst_m2d/while/split_2-folded-1", "shape": [40], "dtype": "float32"}, {"name": "ConstantFolding/StatefulPartitionedCall/sequential/conv_lst_m2d/while/body/_26/sequential/conv_lst_m2d/while/split_2-folded-0", "shape": [40], "dtype": "float32"}, {"name": "ConstantFolding/StatefulPartitionedCall/sequential/conv_lst_m2d/while/body/_26/sequential/conv_lst_m2d/while/split_2-folded-2", "shape": [40], "dtype": "float32"}, {"name": "ConstantFolding/StatefulPartitionedCall/sequential/conv_lst_m2d_1/while/body/_75/sequential/conv_lst_m2d_1/while/split-folded-3", "shape": [3, 3, 20, 40], "dtype": "float32"}, {"name": "ConstantFolding/StatefulPartitionedCall/sequential/conv_lst_m2d_1/while/body/_75/sequential/conv_lst_m2d_1/while/split_1-folded-3", "shape": [3, 3, 40, 40], "dtype": "float32"}, {"name": "StatefulPartitionedCall/sequential/conv_lst_m2d_1/while/body/_75/sequential/conv_lst_m2d_1/while/Const_7", "shape": [], "dtype": "float32"}, {"name": "StatefulPartitionedCall/sequential/conv_lst_m2d_1/while/body/_75/sequential/conv_lst_m2d_1/while/Const_8", "shape": [], "dtype": "float32"}, {"name": "StatefulPartitionedCall/sequential/conv_lst_m2d_1/while/body/_75/sequential/conv_lst_m2d_1/while/clip_by_value_2/Minimum/y", "shape": [], "dtype": "float32"}, {"name": "StatefulPartitionedCall/sequential/conv_lst_m2d_1/while/body/_75/sequential/conv_lst_m2d_1/while/clip_by_value_2/y", "shape": [], "dtype": "float32"}, {"name": "ConstantFolding/StatefulPartitionedCall/sequential/conv_lst_m2d_1/while/body/_75/sequential/conv_lst_m2d_1/while/split-folded-1", "shape": [3, 3, 20, 40], "dtype": "float32"}, {"name": "ConstantFolding/StatefulPartitionedCall/sequential/conv_lst_m2d_1/while/body/_75/sequential/conv_lst_m2d_1/while/split_1-folded-1", "shape": [3, 3, 40, 40], "dtype": "float32"}, {"name": "StatefulPartitionedCall/sequential/conv_lst_m2d_1/while/body/_75/sequential/conv_lst_m2d_1/while/Const_5", "shape": [], "dtype": "float32"}, {"name": "StatefulPartitionedCall/sequential/conv_lst_m2d_1/while/body/_75/sequential/conv_lst_m2d_1/while/Const_6", "shape": [], "dtype": "float32"}, {"name": "StatefulPartitionedCall/sequential/conv_lst_m2d_1/while/body/_75/sequential/conv_lst_m2d_1/while/clip_by_value_1/Minimum/y", "shape": [], "dtype": "float32"}, {"name": "StatefulPartitionedCall/sequential/conv_lst_m2d_1/while/body/_75/sequential/conv_lst_m2d_1/while/clip_by_value_1/y", "shape": [], "dtype": "float32"}, {"name": "ConstantFolding/StatefulPartitionedCall/sequential/conv_lst_m2d_1/while/body/_75/sequential/conv_lst_m2d_1/while/split-folded-0", "shape": [3, 3, 20, 40], "dtype": "float32"}, {"name": "ConstantFolding/StatefulPartitionedCall/sequential/conv_lst_m2d_1/while/body/_75/sequential/conv_lst_m2d_1/while/split_1-folded-0", "shape": [3, 3, 40, 40], "dtype": "float32"}, {"name": "StatefulPartitionedCall/sequential/conv_lst_m2d_1/while/body/_75/sequential/conv_lst_m2d_1/while/Const_3", "shape": [], "dtype": "float32"}, {"name": "StatefulPartitionedCall/sequential/conv_lst_m2d_1/while/body/_75/sequential/conv_lst_m2d_1/while/Const_4", "shape": [], "dtype": "float32"}, {"name": "StatefulPartitionedCall/sequential/conv_lst_m2d_1/while/body/_75/sequential/conv_lst_m2d_1/while/clip_by_value/Minimum/y", "shape": [], "dtype": "float32"}, {"name": "StatefulPartitionedCall/sequential/conv_lst_m2d_1/while/body/_75/sequential/conv_lst_m2d_1/while/clip_by_value/y", "shape": [], "dtype": "float32"}, {"name": "StatefulPartitionedCall/sequential/conv_lst_m2d_1/while/body/_75/sequential/conv_lst_m2d_1/while/TensorArrayV2Read/TensorListGetItem/element_shape", "shape": [4], "dtype": "int32"}, {"name": "ConstantFolding/StatefulPartitionedCall/sequential/conv_lst_m2d_1/while/body/_75/sequential/conv_lst_m2d_1/while/split-folded-2", "shape": [3, 3, 20, 40], "dtype": "float32"}, {"name": "ConstantFolding/StatefulPartitionedCall/sequential/conv_lst_m2d_1/while/body/_75/sequential/conv_lst_m2d_1/while/split_1-folded-2", "shape": [3, 3, 40, 40], "dtype": "float32"}, {"name": "StatefulPartitionedCall/sequential/conv_lst_m2d_1/while/body/_75/sequential/conv_lst_m2d_1/while/add_8/y", "shape": [], "dtype": "int32"}, {"name": "StatefulPartitionedCall/sequential/conv_lst_m2d_1/while/body/_75/sequential/conv_lst_m2d_1/while/add_9/y", "shape": [], "dtype": "int32"}, {"name": "ConstantFolding/StatefulPartitionedCall/sequential/conv_lst_m2d_1/while/body/_75/sequential/conv_lst_m2d_1/while/split_2-folded-3", "shape": [40], "dtype": "float32"}, {"name": "ConstantFolding/StatefulPartitionedCall/sequential/conv_lst_m2d_1/while/body/_75/sequential/conv_lst_m2d_1/while/split_2-folded-1", "shape": [40], "dtype": "float32"}, {"name": "ConstantFolding/StatefulPartitionedCall/sequential/conv_lst_m2d_1/while/body/_75/sequential/conv_lst_m2d_1/while/split_2-folded-0", "shape": [40], "dtype": "float32"}, {"name": "ConstantFolding/StatefulPartitionedCall/sequential/conv_lst_m2d_1/while/body/_75/sequential/conv_lst_m2d_1/while/split_2-folded-2", "shape": [40], "dtype": "float32"}]}]}